checkpoint_critic.pth (torch_old, 89592 bytes, 9 tensors)

fcs1.weight f4 [128, 33]
0.0062029324 -0.22994955 -0.057418253 -0.10399582 0.16108058 -0.12001532 -0.120064385 -0.23951188
-0.6588521 -0.49246752 -0.10420203 -0.5007992 0.36096388 0.48361033 -0.0786765 0.3291909
-0.52124566 -1.0493631 -0.63620156 0.24995959 -0.07971715 -0.1322478 0.036451407 -0.028618988
-0.52282166 0.19112352 -0.22365876 -0.08516548 -0.43830383 -0.07745276 0.082799 -0.06518316
-0.67820907 -0.11279149 -1.2688316 -0.32585344 1.2434717 -0.18753463 -0.15189691 -0.049921818
-0.13283285 0.084843814 0.25481632 -0.014724436 -0.09057563 0.09610048 0.24790107 0.60940063
0.39198676 -0.09136426 0.1118012 0.15005837 -0.5511834 0.006863246 0.040510662 -0.25093675
-0.042618375 -0.0087267915 0.18678638 -0.09197773 0.08266979 0.75889677 0.07968625 -0.016013449
0.052087314 0.91143197 -0.6889799 0.16610219 0.13528775 -0.072071925 0.2889051 -0.031062242
0.54094076 -0.32315552 0.049304213 -0.2730502 -0.05312785 0.1084073 -0.10161267 -0.049840853
-0.23134713 -0.27278706 0.864458 -0.7202927 0.76756924 0.057793897 0.08557818 -0.08265824
0.17037685 -0.49015284 0.08778992 0.29695752 -0.07801579 0.015044892 -0.33417097 -0.06767324
-0.011186155 -0.039008476 -1.2345829 0.19932806 -0.792409 0.099871054 1.0272433 -0.55736744
-0.013048936 0.065079674 -0.32049036 0.05480847 0.11032379 0.10288626 0.15668537 0.24631403
-0.20516741 0.5400305 0.081542686 0.14518635 -0.27002543 -0.046219476 -0.74013317 0.124818556
-0.26111495 -0.014434536 -0.1248122 0.23348902 0.35759524 -0.115496024 -0.01912464 1.0191394
0.014617085 0.08890153 0.051151402 -0.19919762 -0.014241044 -0.84293854 -0.307438 0.9882786
-0.64734703 0.18315984 -0.1813748 0.0033137256 -0.04251855 -0.011221044 0.06149308 -0.016508589
-0.041951187 -0.5639814 0.37502673 -0.065068476 0.13743992 -0.1312965 -0.121217005 -0.8249245
-0.09284629 0.06511075 -0.37979805 -0.13640395 0.25960606 0.18592627 -0.48348084 0.0554083
0.21232966 0.010922663 0.029183323 -0.033658735 -0.89014864 0.15469952 -0.4877093 0.18544723
1.0029166 -0.33155084 0.013529615 0.3050896 0.17449969 -0.08797061 -0.015738469 -0.00014457943
-0.11540494 0.35343105 -0.56562215 0.5131727 -0.16828905 -0.10481608 0.11046528 0.033237856
-1.192684 0.17624567 0.05557137 -0.1908789 0.072594546 -0.046981327 0.013360217 -0.5921212
0.016468823 -0.2326656 0.02567704 0.027100265 -0.058175884 -0.12651141 0.60705435 0.5475561
0.8263743 -0.010047679 0.39254013 0.03293762 0.44941977 0.23347634 0.2998174 -0.085896164
-0.10828478 -0.8963879 0.4992708 0.053154115 -0.51885426 -0.054295994 0.572582 0.12774421
-0.97305256 0.013123617 -0.237632 -0.06530892 0.22692615 -0.052501325 0.18608828 -0.24863926
-0.32991308 -0.0411148 0.033089254 0.085126646 -0.073098995 -0.05809632 0.39915106 0.9383312
0.6821947 -0.42047623 -0.1545298 0.3971301 0.2898967 -0.3081627 -0.3334195 0.24261399
-0.3305017 0.15193668 0.18310688 -0.07026435 0.37646064 -0.660305 -0.041569434 0.16952759
-0.5570984 0.3128029 -0.09264793 -0.035012864 0.011246501 0.24583103 0.027133191 0.29254085
00000000: f841 cb3b e577 6bbe 672f 6bbd c3fb d4bd
00000010: 4ff2 243e 98ca f5bd 51e4 f5bd 9a42 75be
00000020: 88aa 28bf b424 fcbe e067 d5bd 6034 00bf
00000030: 42d0 b83e c69b f73e 2521 a1bd b68b a83e
00000040: 5b70 05bf 8851 86bf 1bde 22bf 68f5 7f3e
00000050: bf42 a3bd f86b 07be 124e 153d 5e72 eabc
00000060: a4d7 05bf e2b5 433e cd06 65be 3d6b aebd
00000070: 5c69 e0be 8d9f 9ebd 8692 a93d c07e 85bd
00000080: 1c9f 2dbf 3aff e6bd 1369 a2bf 43d6 a6be
00000090: 152a 9f3f 1409 40be dd8a 1bbe d27a 4cbd
000000a0: 5605 08be 98c2 ad3d 4977 823e c33e 71bc
000000b0: b77f b9bd 54d0 c43d c7d9 7d3e ae01 1c3f
000000c0: 7db2 c83e 2f1d bbbd 07f8 e43d e7a8 193e
000000d0: 5b1a 0dbf 15e5 e03b 82ee 253d c87a 80be
000000e0: 9b90 2ebd d1fa 0ebc ee44 3f3e d25e bcbd
000000f0: c74e a93d 0f47 423f 8b32 a33d a32e 83bc
00000100: 8259 553d 9b53 693f fd60 30bf b116 2a3e
00000110: df88 0a3e 729a 93bd 5feb 933e 3e76 febc
00000120: 187b 0a3f a474 a5be 37f3 493d 3ccd 8bbe
00000130: 979c 59bd a604 de3d 4e1a d0bd ec25 4cbd
00000140: 43e6 6cbe bfaa 8bbe 1f4d 5d3f 1a65 38bf
00000150: 6b7f 443f 4bb9 6c3d 9d43 af3d b948 a9bd
00000160: 4577 2e3e 50f5 fabe 34cb b33d d10a 983e
00000170: bec6 9fbd da7e 763c 7518 abbe 4598 8abd
00000180: 2246 37bc 5ac7 1fbd d006 9ebf a81c 4c3e
00000190: 51db 4abf 3289 cc3d b57c 833f a2af 0ebf
000001a0: 34cb 55bc 7e48 853d 5017 a4be d97e 603d
000001b0: 70f1 e13d 08b6 d23d 2172 203e bf39 7c3e
000001c0: 6817 52be 703f 0a3f daff a63d bbab 143e
000001d0: c640 8abe a250 3dbd 5e79 3dbf dfa0 ff3d
000001e0: dcb0 85be d57e 6cbc 8a9d ffbd bf17 6f3e
000001f0: b916 b73e 2e89 ecbd 47ab 9cbc 2973 823f
00000200: 807c 6f3c 0112 b63d 2284 513d 76fa 4bbe
00000210: 4553 69bc d2ca 57bf 8368 9dbe d4ff 7c3f
00000220: 89b8 25bf 418e 3b3e 51ba 39be 172b 593b
00000230: ee27 2ebd 78d8 37bc 2be0 7b3d 053d 87bc
00000240: 02d5 2bbd 1661 10bf 8103 c03e 9f42 85bd
00000250: 0dbd 0c3e 9772 06be 9f40 f8bd 412e 53bf
00000260: 3226 bebd c958 853d e474 c2be 7aad 0bbe
00000270: 16eb 843e 7563 3e3e cd8a f7be d0f3 623d
00000280: f26c 593e f8f4 323c dd11 ef3c bedd 09bd
00000290: c8e0 63bf 8d69 1e3e 09b5 f9be e1e5 3d3e
000002a0: 925f 803f 08c1 a9be 51ab 5d3c b434 9c3e
000002b0: 0cb0 323e ef29 b4bd f6ed 80bc 3f9a 17b9
000002c0: 6d59 ecbd eaf4 b43e 9dcc 10bf 495f 033f
000002d0: f753 2cbe d0a9 d6bd 9f3b e23d 6b24 083d
000002e0: dfa9 98bf bf79 343e ce9e 633d c275 43be
000002f0: 73ac 943d 7e6f 40bd d0e4 5a3c 4195 17bf
00000300: a0e9 863c e43f 6ebe a858 d23c 6001 de3c
00000310: d649 6ebd 358c 01be ea67 1b3f a32c 0c3f
00000320: 448d 533f 059f 24bc 05fb c83e 99e9 063d
00000330: 591a e63e 6c14 6f3e ab81 993e 54ea afbd
00000340: 69c4 ddbd ad79 65bf 6ca0 ff3e 21b8 593d
00000350: a2d3 04bf 7a65 5ebd bc94 123f 61cf 023e
00000360: f919 79bf 7004 573c ce55 73be afc0 85bd
00000370: 545f 683e a10b 57bd ed8d 3e3e 4a9b 7ebe
00000380: 5eea a8be fe67 28bd 9988 073d e156 ae3d
00000390: edb4 95bd 68f6 6dbd 875d cc3e 7936 703f
000003a0: 50a4 2e3f a948 d7be 0f3d 1ebe a354 cb3e
000003b0: 576d 943e 80c7 9dbe f6b5 aabe cd6f 783e
000003c0: 8537 a9be 4a95 1b3e 5f80 3b3e c1e6 8fbd
000003d0: 73bf c03e c009 29bf b644 2abd a498 2d3e
000003e0: 009e 0ebf b427 a03e 33be bdbd a669 0fbd
000003f0: 3e43 383c 21bb 7b3e 6d46 de3c eac7 953e

fcs1.bias f4 [128]
0.07665582 0.13798773 0.16605371 0.15007815 -0.096035674 0.03986272 -0.10931691 0.003768458
0.14453629 0.085327104 -0.16059011 -0.07779187 -0.14673163 0.082156576 -0.022153562 -0.12712151
-0.05574251 0.05707219 0.016116038 0.16361302 -0.0021328744 0.054757312 -0.05274633 0.021001909
0.0062532006 0.14934443 0.073090844 -0.09853739 -0.15466584 -0.16591907 -0.06329623 0.023185702
0.16393939 -0.017103925 0.06806275 0.088427305 -0.13252038 -0.14403354 0.06609111 0.08057464
-0.08053607 0.026668033 -0.16909711 0.0032404126 0.04277397 0.0017644555 -0.028777821 0.072564594
-0.04885903 0.12975346 -0.14897133 -0.100444935 -0.14570403 -0.15700261 0.12902717 -0.04300535
-0.1368581 0.03607206 -0.13089459 0.008859928 0.08097151 -0.03690735 0.08907105 0.035950262
-0.13930656 0.034488793 0.11178404 -0.04036316 0.016386675 0.022230523 0.015001108 0.045227043
-0.16689378 0.13225439 0.07620362 0.021733886 0.031559538 -0.14040248 -0.049819928 -0.006496474
0.041355237 -0.09549607 0.018437224 -0.052634507 0.12764902 -0.14963351 0.017755795 0.11757469
-0.13519765 -0.005203231 0.080447935 0.0705002 0.020552246 0.07020891 -0.12139573 0.14506896
0.0019871993 0.11270663 0.038540635 -0.019452972 0.07471385 0.16517809 0.17151469 -0.14674842
0.0120514305 -0.1250094 0.101351626 0.12248855 -0.122003436 -0.01024054 0.12037076 0.11501052
-0.13070361 0.11700428 -0.030550772 -0.14780308 0.03317905 0.081040256 0.104287446 -0.1182691
-0.12601577 -0.11698133 0.09864801 -0.15228197 -0.0016192058 -0.05154246 0.07611257 0.034194745
00000000: bafd 9c3d a84c 0d3e fc09 2a3e 16ae 193e
00000010: 5aae c4bd 1747 233d 8be1 dfbd 3cf8 763b
00000020: 5201 143e fabf ae3d bc71 24be 5851 9fbd
00000030: d140 16be b541 a83d 637b b5bc 242c 02be
00000040: 4252 64bd 87c4 693d c805 843c 2c8a 273e
00000050: b2c7 0bbb 3449 603d 890c 58bd 320c ac3c
00000060: a6e7 cc3b bfed 183e a7b0 953d f9cd c9bd
00000070: b960 1ebe b0e6 29be 74a1 81bd f1ef bd3c
00000080: badf 273e 881d 8cbc 7c64 8b3d 6019 b53d
00000090: 6cb3 07be 877d 13be c75a 873d 5104 a53d
000000a0: 18f0 a4bd eb76 da3c cb27 2dbe 1a5d 543b
000000b0: c233 2f3d 4d45 e73a 77bf ebbc bf9c 943d
000000c0: 6820 48bd 17de 043e f18b 18be 13b6 cdbd
000000d0: 7033 15be 4bc5 20be b31f 043e 6126 30bd
000000e0: 8824 0cbe 4cc0 133d 3b09 06be 3b29 113c
000000f0: 64d4 a53d 292c 17bd e26a b63d 9540 133d
00000100: 61a6 0ebe 1f44 0d3d 08ef e43d d753 25bd
00000110: 593d 863c c91c b63c 35c7 753c fe3f 393d
00000120: 34e6 2abe b26d 073e a510 9c3d 430b b23c
00000130: 9344 013d abc5 0fbe fb0f 4cbd 60e0 d4bb
00000140: 1c64 293d 7293 c3bd a909 973c 4897 57bd
00000150: 6db6 023e 8739 19be 9a74 913c 00cb f03d
00000160: 4171 0abe dd7f aabb e3c1 a43d 6962 903d
00000170: 2f5d a83c b0c9 8f3d 539e f8bd f58c 143e
00000180: ac3b 023b bcd2 e63d c9dc 1d3d d75b 9fbc
00000190: 9303 993d 7224 293e 8ca1 2f3e 3845 16be
000001a0: 5d73 453c 7702 00be 7191 cf3d 47db fa3d
000001b0: f0dc f9bd f0c7 27bc f284 f63d a38a eb3d
000001c0: 2bd7 05be f19f ef3d 9d45 fabc b159 17be
000001d0: c1e6 073d 6ff8 a53d a894 d53d 1237 f2bd
000001e0: 470a 01be e893 efbd f807 ca3d ceef 1bbe
000001f0: 883b d4ba 301e 53bd e8e0 9b3d ca0f 0c3d

bn1.weight f4 [128]
0.20871039 0.31979805 0.38878676 0.5413353 0.06494611 0.16958638 0.23798323 0.15618472
0.35116848 0.31983235 0.44822577 0.53770405 0.329451 0.97808796 0.20401351 0.15598045
0.34949765 0.22434463 0.0007326985 0.42854005 0.2481683 -0.0013795168 0.2568697 0.105186135
0.16724342 0.49789837 0.3936548 0.2816103 0.1415483 0.5388879 0.44939035 0.3950031
0.45610672 0.0010613315 0.012290729 -0.007259755 0.47639507 0.0527658 0.40066558 0.4761822
0.45717892 0.6612667 0.44490618 0.6735434 0.00063734804 0.40969893 0.32800567 0.7539441
0.44155917 0.23344047 0.53420514 0.81149733 0.6486965 0.9312079 0.33249235 0.11932101
0.41138813 0.37014046 0.87101275 0.3049171 0.52364063 0.4302794 0.24918018 0.3732463
0.42354473 0.39250407 0.3640349 0.051623236 0.20838518 0.21705061 0.25694337 0.21954006
0.57673496 0.5781998 0.20670332 0.68182516 0.33050957 0.44015926 0.787901 1.1561655
0.30414706 0.015232656 0.37001583 0.51427907 0.37610826 0.32052043 0.41941622 0.8586309
0.39758518 0.5042406 0.29617128 0.35445005 0.5508123 0.28340185 0.042326096 0.36256835
0.5015682 0.26142362 0.2589852 0.320148 0.2650344 0.30009842 0.40771475 0.44732642
0.7835429 0.29194602 0.20659524 0.50148284 0.28250572 0.26107803 0.38401973 0.05895348
0.28872487 0.35973123 0.47648934 0.29669055 0.82385445 0.4705251 0.41206044 0.17391878
0.71955556 0.16323102 0.38030952 0.2484956 0.4729617 0.90044254 0.4801658 0.2930276
00000000: 2db8 553e 92bc a33e 0f0f c73e f394 0a3f
00000010: 7702 853d 0da8 2d3e e0b1 733e e3ee 1f3e
00000020: 5bcc b33e 11c1 a33e d97d e53e f9a6 093f
00000030: cdad a83e f963 7a3f ebe8 503e 57b9 1f3e
00000040: 5bf1 b23e 99ba 653e 9012 403a 9a69 db3e
00000050: d51f 7e3e e7d0 b4ba 6d84 833e d46b d73d
00000060: dc41 2b3e 89ec fe3e 1f8d c93e 3a2f 903e
00000070: 0af2 103e 8ff4 093f 7e16 e63e d93d ca3e
00000080: d286 e93e 601c 8b3a 0e5f 493c 3de3 edbb
00000090: 0eea f33e f420 583d 0a24 cd3e 27ce f33e
000000a0: 5b13 ea3e c648 293f beca e33e 576d 2c3f
000000b0: b413 273a 0fc4 d13e 5cf0 a73e 7b02 413f
000000c0: 0b14 e23e 050b 6f3e abc1 083f 4abe 4f3f
000000d0: f910 263f a463 6e3f 703c aa3e 935e f43d
000000e0: 77a1 d23e 0d83 bd3e b1fa 5e3f 181e 9c3e
000000f0: 500d 063f 954d dc3e 1729 7f3e 241a bf3e
00000100: dbda d83e 4bf6 c83e c862 ba3e e372 533d
00000110: ed62 553e 8442 5e3e 158e 833e 1ccf 603e
00000120: e7a4 133f e704 143f 09aa 533e 188c 2e3f
00000130: 8d38 a93e 8e5c e13e e1b3 493f 3bfd 933f
00000140: 2ab9 9b3e 6492 793c b772 bd3e cba7 033f
00000150: 4391 c03e 411b a43e b9bd d63e 3ccf 5b3f
00000160: 4990 cb3e e915 013f c3a3 973e 7a7a b53e
00000170: 0902 0d3f 0c1a 913e 215e 2d3d 8fa2 b93e
00000180: c666 003f 51d9 853e b599 843e 70ea a33e
00000190: 97b2 873e 80a6 993e fdbf d03e f807 e53e
000001a0: 4496 483f f379 953e b48d 533e 2e61 003f
000001b0: 97a4 903e 05ac 853e 3c9e c43e 3479 713d
000001c0: bfd3 933e b12e b83e 69f6 f33e d3e7 973e
000001d0: 20e8 523f aae8 f03e 96f9 d23e c417 323e
000001e0: cb34 383f 0826 273e eeb7 c23e a175 7e3e
000001f0: 0928 f23e 6783 663f 4bd8 f53e b707 963e

bn1.bias f4 [128]
-0.33050504 0.38702902 -0.66639274 0.30468643 0.6343783 0.3926882 -0.18697274 -0.54607695
-0.51937026 -0.6008604 -0.42719057 -0.44594577 -0.36063832 0.051410116 -0.3106674 -0.1044398
-0.06756721 -0.04772192 -0.016614009 -0.49636024 -0.33122033 -0.016024401 -0.48083732 -0.77948105
-0.5024025 -0.32065398 0.27437198 0.45172656 -0.66199017 -0.16463271 -0.45164302 -0.32677507
-0.5535519 -0.0146400705 -0.23252691 0.3419386 -0.36484715 -0.5255388 -0.25115532 -0.35155007
-0.58927375 -0.6439807 -0.41917112 -0.51978666 0.5294757 -0.26650035 -0.37286544 -0.05511104
-0.36521658 -0.42330655 -0.78358763 -0.44964564 -0.926905 -1.0005155 -0.22757329 -0.701635
-0.34942627 -0.347793 -0.28235936 -0.598775 -0.46619904 -0.5566529 -0.2679454 -0.5097359
-0.41551042 -0.1263904 -0.45335075 -0.29625568 -0.16977465 -0.058451273 0.025830213 0.04449254
-0.969638 -0.367709 -0.52062666 -0.6125209 0.16312303 0.20839344 -0.35319546 -0.40992847
-0.28342116 0.2669742 -0.2241424 -0.32350948 -0.5137242 -0.1431331 -0.20751587 -0.43465248
-0.45105666 -0.4948829 -0.7204137 0.29481345 -0.7767618 -0.037467603 -0.267875 0.2530434
-0.00042838912 -0.2197964 -0.80387896 -0.47944692 -0.55728877 -0.3504039 -0.69761825 -0.33033067
-0.16344061 -0.6630464 -0.014557095 -0.41084602 -0.45041528 -0.38610455 0.21368355 0.13517964
0.16874751 -0.7227583 -0.5099021 -0.4657904 -0.42681605 -0.09344494 -0.6371125 -0.059664827
-0.36188424 -0.48233712 -0.8786503 -0.09206906 -0.665856 -0.5777743 -0.49045226 -0.23570812
00000000: f537 a9be ab28 c63e b798 2abf dcff 9b3e
00000010: 9e66 223f 6e0e c93e c875 3fbe b3cb 0bbf
00000020: 73f5 04bf fdd1 19bf b9b8 dabe 0153 e4be
00000030: 96a5 b8be 6a93 523d cc0f 9fbe 89e4 d5bd
00000040: ad60 8abd 0f78 43bd 1a1a 88bc ee22 febe
00000050: b695 a9be 9b45 83bc 4f30 f6be 128c 47bf
00000060: 739d 00bf c22c a4be 7c7a 8c3e b448 e73e
00000070: 3078 29bf 7a95 28be c13d e7be 104f a7be
00000080: 94b5 0dbf e8dc 6fbc 891b 6ebe 9412 af3e
00000090: 3fcd babe b689 06bf 6e97 80be 5ffe b3be
000000a0: a5da 16bf ebdb 24bf 999d d6be bd10 05bf
000000b0: b88b 073f bc72 88be 38e8 bebe 1dbc 61bd
000000c0: abfd babe a3bb d8be 3399 48bf f437 e6be
000000d0: a549 6dbf e410 80bf f908 69be 5a9e 33bf
000000e0: 00e8 b2be ed11 b2be 6891 90be 5249 19bf
000000f0: a4b1 eebe ce80 0ebf 2430 89be 0d7e 02bf
00000100: c8bd d4be 7c6c 01be 971d e8be d3ae 97be
00000110: 68d9 2dbe 9a6a 6fbd e299 d33c cf3d 363d
00000120: 323a 78bf 5b44 bcbe ca47 05bf 2bce 1cbf
00000130: b909 273e 1765 553e 09d6 b4be 25e2 d1be
00000140: 941c 91be d8b0 883e 9685 65be 09a3 a5be
00000150: 6e83 03bf 7c91 12be 0a7f 54be c58a debe
00000160: e6f0 e6be 4b61 fdbe 086d 38bf caf1 963e
00000170: dcd9 46bf a177 19bd e926 89be e88e 813e
00000180: 6a99 e0b9 4f12 61be 03cb 4dbf 117a f5be
00000190: 7aaa 0ebf 2468 b3be 1c97 32bf 1a21 a9be
000001a0: fa5c 27be 69bd 29bf e280 6ebc 695a d2be
000001b0: d59c e6be 7faf c5be dccf 5a3e 886c 0a3e
000001c0: 26cc 2c3e b006 39bf f288 02bf 147c eebe
000001d0: a287 dabe 1060 bfbd ce19 23bf 1b63 74bd
000001e0: e448 b9be e4f4 f6be 3aef 60bf b48e bcbd
000001f0: 8a75 2abf 04e9 13bf 8f1c fbbe 785d 71be

bn1.running_mean f4 [128]
0.769141 2.2953346 0.6266647 1.5981506 3.0654075 1.2962149 -0.6232816 1.3145974
-3.1944592 7.3611064 2.4316478 0.24640639 1.6008662 0.5747753 1.349006 -1.0045878
5.298508 0.91105664 -0.16159716 -7.550272 3.454023 -0.3364495 1.6375223 -1.790256
3.776705 0.82434213 0.91016275 1.4127995 -1.2142947 3.5411115 -1.1362247 -0.81834334
-0.9273145 -0.45905432 0.50325876 -0.17212015 -0.9808729 2.1489296 -1.4113858 0.4999031
-0.63677555 1.285006 -0.41199338 -1.6539927 3.9285817 4.417472 -2.5733435 3.1741793
1.6753355 0.96158516 -1.5980439 -0.5749695 -0.4379687 1.1456258 -1.2219617 -2.4552133
-1.5709004 1.2778095 1.1696026 2.4043062 0.572831 -0.3633053 -2.0924037 -1.4036362
-6.2827888 -2.4871054 -0.660931 -0.6224758 0.832838 0.7737735 -0.059062097 1.060352
0.22942221 -0.051103357 0.7257621 0.91158515 -0.2033298 0.045755863 0.11381081 -0.749991
-1.5176816 1.4151742 -0.8792442 -1.3781832 -1.5736192 -0.6124507 -6.4592505 -1.2160953
-1.9370351 -1.20236 -0.09744037 2.2737625 -1.3388011 1.4691542 -1.4779798 -2.715094
-0.25658563 2.282955 -0.308244 0.0030407803 3.640922 1.1435839 -0.23699185 7.309902
-1.6153269 -2.4558454 1.6423699 -0.2761458 -2.172451 -1.6526413 -1.5958036 2.507639
2.7215507 -0.7526608 1.6520476 -2.1903243 1.0438118 0.84703964 -1.4497515 -1.4331408
-1.2134713 1.4695563 -0.3615732 2.5239317 -2.7451873 -1.4193097 1.0979865 4.4973683
00000000: 6de6 443f c3e6 1240 196d 203f 3390 cc3f
00000010: a32f 4440 5fea a53f 628f 1fbf ba44 a83f
00000020: 0572 4cc0 2f8e eb40 1ea0 1b40 f551 7c3e
00000030: 2fe9 cc3f 7924 133f 3bac ac3f 5596 80bf
00000040: 618d a940 023b 693f ba79 25be d49b f1c0
00000050: b60e 5d40 1c43 acbe 559a d13f 1c27 e5bf
00000060: 89b5 7140 1608 533f 6d00 693f 9dd6 b43f
00000070: 026e 9bbf 92a1 6240 d06f 91bf f37e 51bf
00000080: 7c64 6dbf 2b09 ebbe 91d5 003f 4440 30be
00000090: 7d1a 7bbf 1088 0940 4aa8 b4bf 4df3 ff3e
000000a0: b903 23bf 147b a43f ccf0 d2be 08b6 d3bf
000000b0: e26d 7b40 ee5b 8d40 a9b1 24c0 c125 4b40
000000c0: 6571 d63f 722a 763f b48c ccbf 3331 13bf
000000d0: 6f3d e0be dea3 923f 3e69 9cbf 3722 1dc0
000000e0: 4413 c9bf 438f a33f 8ab5 953f 27e0 1940
000000f0: 0da5 123f 2703 babe f1e9 05c0 5aaa b3bf
00000100: 9b0c c9c0 bc2c 1fc0 c632 29bf 935a 1fbf
00000110: df34 553f 0516 463f 19eb 71bd 9db9 873f
00000120: a8ed 6a3e c151 51bd 8ccb 393f a55d 693f
00000130: b035 50be 806a 3b3d a415 e93d 69ff 3fbf
00000140: 6443 c2bf 6e24 b53f 2616 61bf 4f68 b0bf
00000150: 5b6c c9bf 92c9 1cbf 2eb2 cec0 03a9 9bbf
00000160: c4f0 f7bf efe6 99bf d18e c7bd 5385 1140
00000170: d65d abbf 3f0d bc3f 712e bdbf 1ac4 2dc0
00000180: 315f 83be ef1b 1240 28d2 9dbe d447 473b
00000190: de04 6940 f560 923f fead 72be b8ea e940
000001a0: 08c3 cebf 922c 1dc0 2d39 d23f fb62 8dbe
000001b0: 7009 0bc0 c089 d3bf 4b43 ccbf 287d 2040
000001c0: e32d 2e40 61ae 40bf 4c76 d33f 462e 0cc0
000001d0: a09b 853f 97d7 583f 7591 b9bf 2871 b7bf
000001e0: 0753 9bbf 6c1a bc3f 1f20 b9be 1988 2140
000001f0: 26b1 2fc0 f1ab b5bf d28a 8c3f 71ea 8f40

bn1.running_var f4 [128]
8.331841 33.588078 8.582939 44.0605 25.946339 29.316275 6.781641 11.629811
13.898447 7.4282594 29.33225 1.8931645 13.805473 5.577609 29.202343 30.28832
7.3437185 4.49841 0.19910714 12.861303 16.678816 0.2272212 16.041431 7.2138686
6.827139 5.504696 12.604361 22.002502 12.198609 8.65333 10.265776 2.3112233
11.011544 0.1977803 2.2289016 14.577868 4.4957275 11.252944 3.8921936 2.249479
7.0847936 5.788342 1.7168517 5.10293 28.514189 36.78952 1.157644 3.6124732
4.5787215 12.03212 4.9087267 6.1206803 3.1139753 5.296287 0.8093264 8.345407
21.792519 6.1804724 4.643641 12.906669 3.12463 6.8340764 8.000395 8.689859
19.229618 4.0394487 6.074623 12.101765 15.514019 23.543917 19.04636 39.832817
7.056479 4.732699 14.970248 5.9224668 23.75543 57.205933 4.4224157 4.567679
4.9587626 20.780895 19.840252 1.2962817 2.5630853 4.51034 14.037899 4.867083
9.061598 6.9669094 6.221101 23.846338 3.773334 12.977812 7.7424603 10.73776
1.4380713 19.194624 30.172148 7.4316907 9.893546 15.401729 11.597272 19.117987
4.1417127 17.18231 10.214908 1.1590494 5.2128196 8.866786 45.129593 20.856506
30.626783 19.716042 10.157875 10.491429 6.492941 39.560577 7.2461524 28.429787
5.7317114 29.864395 24.139181 14.685024 6.37376 6.4396005 6.988169 12.386402
00000000: 394f 0541 315a 0642 b853 0941 f43d 3042
00000010: 1a92 cf41 bb87 ea41 3403 d940 b513 3a41
00000020: 0a60 5e41 4db4 ed40 73a8 ea41 3753 f23f
00000030: 38e3 5c41 c67b b240 669e e941 7b4e f241
00000040: beff ea40 faf2 8f40 bee2 4b3e e6c7 4d41
00000050: 376e 8541 adac 683e da54 8041 03d8 e640
00000060: ec77 da40 7826 b040 76ab 4941 2005 b041
00000070: 812d 4341 0a74 0a41 9e40 2441 15eb 1340
00000080: 492f 3041 eb86 4a3e 53a6 0e40 f33e 6941
00000090: 00dd 8f40 0f0c 3441 b319 7940 77f7 0f40
000000a0: a1b6 e240 193a b940 ccc1 db3f 344b a340
000000b0: 0f1d e441 7828 1342 ae2d 943f c332 6740
000000c0: e384 9240 9083 4041 4a14 9d40 9ddc c340
000000d0: 5f4b 4740 2f7b a940 0430 4f3f c986 0541
000000e0: 1457 ae41 6ec6 c540 b598 9440 b781 4e41
000000f0: f0f9 4740 c1b0 da40 9e01 0041 aa09 0b41
00000100: 42d6 9941 2a43 8140 5063 c240 d4a0 4141
00000110: 6c39 7841 f159 bc41 f25e 9841 ce54 1f42
00000120: adce e140 4572 9740 2386 6f41 d984 bd40
00000130: 1f0b be41 e0d2 6442 6e84 8d40 6d2a 9240
00000140: 2fae 9e40 463f a641 d6b8 9e41 8fec a53f
00000150: 9709 2440 b554 9040 3c9b 6041 25bf 9b40
00000160: 4efc 1041 ecf0 de40 4213 c740 4dc5 be41
00000170: 4e7e 7140 1ea5 4f41 3cc2 f740 ddcd 2b41
00000180: b812 b83f 978e 9941 8f60 f141 69d0 ed40
00000190: f74b 1e41 7b6d 7641 6d8e 3941 a3f1 9841
000001a0: e988 8440 5f75 8941 4370 2341 bb5b 943f
000001b0: 6bcf a640 5bde 0d41 b484 3442 20da a641
000001c0: a703 f541 74ba 9d41 a886 2241 e5dc 2741
000001d0: 2cc6 cf40 083e 1e42 7be0 e740 3470 e341
000001e0: 2e6a b740 48ea ee41 0b1d c141 dcf5 6a41
000001f0: d8f5 cb40 3511 ce40 159f df40 b42e 4641

fc2.weight f4 [128, 132]
0.009462557 -0.19509594 0.116582096 -0.39809266 -0.23225 -0.074469246 -0.21636465 0.03392869
-0.32829538 0.07078388 -0.18677507 -0.118821576 0.014299989 -0.101055056 -0.037543546 -0.036521662
0.12950231 -0.3676481 -0.047963936 -0.1700341 -0.15246084 0.06909237 0.24089608 -0.20341149
0.08922595 0.03669337 0.0563498 -0.3700942 -0.12690763 0.054215897 0.18924187 -0.87786597
-0.12991625 0.018801527 -0.0015044713 0.33315548 0.053817026 -0.08741851 -0.4863974 0.15293323
0.044695146 -0.14511532 -0.34707525 -0.54606175 -0.04357973 0.21584801 -0.22011001 -0.54569274
0.17383347 0.015957173 0.08422131 -0.11412059 -0.22954997 -0.36855596 -0.13012993 0.1415392
-0.29398596 -0.19814017 -0.2517841 -0.21659224 -0.08241441 -0.29288048 -0.07781384 0.13359472
-0.14177312 -0.08154945 -0.06228305 0.0014414686 -0.34944496 -0.027012251 0.18899861 -0.057892922
-0.15121081 -0.17673208 -0.0953121 0.09910268 -0.6346484 -0.034024112 -0.036827035 -0.117210306
-0.1187572 -0.67962974 0.026103813 -0.12934643 -0.2299001 0.08611986 0.2727705 -0.22150831
0.028095044 0.027512247 -0.14119972 -0.2098521 -0.20907807 -0.32618746 0.16459529 -0.14288788
-0.48848793 -0.0365125 0.29247046 -0.03494239 -0.27225265 -0.20241109 -0.20972136 -0.06347439
0.20940858 -0.09766621 -0.16516276 -0.13771015 -0.2564522 -0.54248804 -0.22975391 0.20865126
-0.14801604 0.03913661 -0.02861289 -0.14929563 -0.1921429 -0.15742195 0.14130351 -0.45041472
-0.22356741 -0.9154686 0.14821641 0.06565918 0.101841226 -0.21828303 0.28525287 0.13463688
-0.21051575 -0.21010761 0.088859774 -0.15903883 0.050576974 0.008110594 0.026560213 -0.046516966
0.01764616 -0.08962488 -0.013673221 0.0025206935 0.048403494 0.060804214 0.02691228 -0.045991644
-0.06745628 -0.11132575 0.027771272 -0.10631281 -0.11019781 -0.0074973046 0.0022568747 -0.040036898
-0.065972075 0.082268275 0.0397504 -0.004040849 -0.056997105 -0.13994691 -0.053213365 0.050955392
0.00015012431 0.024077414 -0.004686488 0.06943508 0.014796953 0.038389526 -0.007084092 0.009034668
-0.10496193 0.086872265 -0.15890236 -0.12830552 -0.017426576 0.01675368 0.0490221 0.060587652
-0.12673342 -0.074201524 -0.12240136 0.033884346 -0.053824853 -0.04818535 -0.09913443 -0.041172642
-0.040500835 -0.061635934 -0.023771891 0.014957398 -0.04369217 -0.030060982 -0.0046841977 -0.046308223
-0.07988121 -0.08361585 -0.023476332 -0.10530615 -0.031497527 -0.13085887 -0.10045813 0.06650886
-0.10065421 0.035732348 -0.08947451 -0.08211152 -0.11670966 -0.086071074 -0.07712502 -0.07282209
-0.0505641 -0.09249361 -0.042131186 -0.08246239 -0.0888271 -0.008612895 -0.012400999 -0.11830028
-0.017568074 -0.12234834 -0.00856555 -0.10610336 -0.0065509547 -0.09269256 0.02183891 -0.033550672
-0.04932958 -0.049786642 -0.11134001 0.038693912 0.04761375 0.0035342237 -0.116051294 0.0002442695
-0.08929339 0.022946252 -0.105637625 -0.08895901 -0.063786 -0.10006375 -0.015593934 -0.01581757
0.02799149 -0.047253255 -0.049771827 0.02223829 0.021726085 0.007028379 0.008110513 -0.09421317
-0.003677796 -0.023389025 -0.012913786 -0.06311685 -0.12881185 -0.08282632 -0.10924429 -0.06686225
00000000: d708 1b3c 3bc7 47be 98c2 ee3d cdd2 cbbe
00000010: f2d2 6dbe 5583 98bd b28e 5dbe cff8 0a3d
00000020: 5516 a8be 24f7 903d f741 3fbe ba58 f3bd
00000030: 804a 6a3c f4f5 cebd 43c7 19bd bd97 15bd
00000040: 419c 043e 5f3c bcbe d575 44bd 6b1d 2ebe
00000050: b21e 1cbe 4d80 8d3d 76ad 763e 1a4b 50be
00000060: 18bc b63d ca4b 163d 0ccf 663d fd7c bdbe
00000070: 13f4 01be 7d11 5e3d 9fc8 413e d3bb 60bf
00000080: c408 05be a905 9a3c ae31 c5ba 5b93 aa3e
00000090: 3e6f 5c3d 7a08 b3bd 1409 f9be 879a 1c3e
000000a0: 4212 373d 1c99 14be d9b3 b1be b4ca 0bbf
000000b0: a980 32bd 4307 5d3e 8564 61be 85b2 0bbf
000000c0: 6701 323e 9eb8 823c 397c ac3d 0eb8 e9bd
000000d0: 260f 6bbe 5eb3 bcbe c840 05be a7ef 103e
000000e0: 5485 96be 42e5 4abe d8e9 80be 5bca 5dbe
000000f0: e3c8 a8bd 6ef4 95be dd5c 9fbd 0ecd 083e
00000100: f92c 11be 6603 a7bd 831c 7fbd a9ef bc3a
00000110: 73ea b2be cc48 ddbc da88 413e 2121 6dbd
00000120: 02d7 1abe 41f9 34be fe32 c3bd 59f6 ca3d
00000130: 5178 22bf de5c 0bbd f2d7 16bd f50b f0bd
00000140: fa36 f3bd 37fc 2dbf aad7 d53c 6473 04be
00000150: ef6a 6bbe 9c5f b03d 93a8 8b3e 13d3 62be
00000160: 9427 e63c 5d61 e13c a996 10be 78e3 56be
00000170: 9018 56be 0b02 a7be ab8b 283e 3351 12be
00000180: 171b fabe 228e 15bd b0be 953e c01f 0fbd
00000190: b364 8bbe da44 4fbe 32c1 56be dcfe 81bd
000001a0: 346f 563e 3905 c8bd 6d20 29be e403 0dbe
000001b0: b44d 83be 7fe0 0abf 9c44 6bbe ada8 553e
000001c0: 8491 17be b64d 203d 9465 eabc f4e0 18be
000001d0: 1cc1 44be 3833 21be deb1 103e c29c e6be
000001e0: dbee 64be 265c 6abf 0bc6 173e 5278 863d
000001f0: 2292 d03d 9685 5fbe aa0c 923e 40de 093e
00000200: 7191 57be 7326 57be 1dfc b53d 13db 22be
00000210: cd29 4f3d 4ce2 043c ce94 d93c 9388 3ebd
00000220: ae8e 903c 408d b7bd a505 60bc 3832 253b
00000230: be42 463d d70d 793d 2477 dc3c bc61 3cbd
00000240: 8526 8abd c1fe e3bd 9480 e33c 88ba d9bd
00000250: 64af e1bd f3ab f5bb 13e8 133b bbfd 23bd
00000260: 5e1c 87bd 457c a83d 51d1 223d 1969 84bb
00000270: cc75 69bd 3e4e 0fbe 42f6 59bd 9ab6 503d
00000280: b06a 1d39 ff3d c53c 1c91 99bb fb33 8e3d
00000290: eb6e 723c 563e 1d3d ac21 e8bb 2506 143c
000002a0: 48f6 d6bd 16ea b13d 4db7 22be 8662 03be
000002b0: 2ec2 8ebc 033f 893c 66cb 483d c22a 783d
000002c0: 68c6 01be f8f6 97bd 90ad fabd 50ca 0a3d
000002d0: 7377 5cbd 005e 45bd fe06 cbbd a5a4 28bd
000002e0: 34e4 25bd f675 7cbd 45bd c2bc e00f 753c
000002f0: 90f6 32bd 7342 f6bc e67d 99bb b1ad 3dbd
00000300: c398 a3bd c93e abbd 7051 c0bc c0aa d7bd
00000310: 8d03 01bd deff 05be febc cdbd cc35 883d
00000320: cb23 cebd 155c 123d 693e b7bd 162a a8bd
00000330: 7905 efbd 0846 b0bd b9f3 9dbd bf23 95bd
00000340: 4d1c 4fbd 4a6d bdbd c091 2cbd 0be2 a8bd
00000350: fcea b5bd 1a1d 0dbc 8f2d 4bbc 6b47 f2bd
00000360: ecea 8fbc c491 fabd 8556 0cbc b84c d9bd
00000370: 64a9 d6bb 99d5 bdbd 84e7 b23c 6e6c 09bd
00000380: d00d 4abd 14ed 4bbd 3b06 e4bd 827d 1e3d
00000390: a306 433d 6f9e 673b 4dac edbd 4c11 8039
000003a0: 74df b6bd c7f9 bb3c 8a58 d8bd 2430 b6bd
000003b0: 3ca2 82bd 39ee ccbd b37d 7fbc d993 81bc
000003c0: 694e e53c a18c 41bd 8bdd 4bbd 132d b63c
000003d0: e7fa b13c 514e e63b f5e1 043c d6f2 c0bd
000003e0: 2e07 71bb 579a bfbc 5894 53bc 6843 81bd
000003f0: 41e7 03be d8a0 a9bd 78bb dfbd 13ef 88bd

fc2.bias f4 [128]
-0.1263797 -0.0875321 0.04054972 -0.043521546 0.0022496586 0.4861419 -0.041093778 -0.0717386
-0.03677573 0.55108833 -0.11755956 0.37333885 -0.084303364 -0.08772478 -0.16284256 0.025686968
-0.5347677 -0.30716595 -0.13547099 -0.25680506 -0.031187031 0.019470477 -0.1075404 -0.12934345
0.0008717508 0.2284366 -0.1304876 0.6187846 -0.04994989 -0.01489354 -0.20100048 -0.5833208
-0.3993981 0.5239019 -0.29412973 -0.06022045 -0.05704962 -0.087181434 -0.14557044 0.63342917
-0.08532175 0.016747013 -0.110873625 -0.047090642 -0.4345568 0.37043387 0.3137135 0.51368076
-0.047537494 -0.1629653 -0.088361025 -0.09453231 -0.10265353 0.29212603 0.036863077 -0.011195317
0.025162995 -0.05312337 -0.12015414 -0.14548309 -0.124314606 -0.43823588 -0.07222269 -0.12130573
-0.0035340122 -0.12115751 -0.03242139 -0.08871841 0.031522222 -0.0013811773 -0.04943817 -0.09337506
-0.05941401 0.55004454 -0.12611696 -0.027483985 -0.4930377 0.18465568 -0.12312677 -0.20837554
-0.00076629175 -0.12958498 0.66499615 -0.06690476 0.23728564 -0.08306517 -0.03285357 -0.071642525
-0.34955403 -0.109069064 -0.06022138 -0.14546643 -0.052028432 0.0022305218 -0.13970508 -0.15148857
0.19099581 -0.16142072 -0.14992855 -0.100337 1.1156445 -0.10252373 -0.10970348 -0.08132994
0.83471406 -0.0053462186 -0.03359895 -0.13411535 -0.049558703 -0.047435116 -0.06970402 -0.14349777
0.06074936 -0.15333258 0.008703996 -0.040487926 -0.104621455 -0.113689095 0.7153962 0.27650255
-0.40378538 -0.09058704 -0.06675485 0.02949778 0.33037865 -0.14125632 -0.03118812 -0.07816089
00000000: ae69 01be 0844 b3bd 7717 263d a643 32bd
00000010: 026f 133b 97e7 f83e f351 28bd b0eb 92bd
00000020: 26a2 16bd 2014 0d3f 11c3 f0bd 4526 bf3e
00000030: 3ea7 acbd 0da9 b3bd 33c0 26be 7a6d d23c
00000040: 89e6 08bf db44 9dbe e8b8 0abe f47b 83be
00000050: f27b ffbc 8d80 9f3c 243e dcbd 9c72 04be
00000060: 3586 643a 49eb 693e 8b9e 05be ab68 1e3f
00000070: 4198 4cbd 0904 74bc 12d3 4dbe 8354 15bf
00000080: e87d ccbe 6f1e 063f 2c98 96be b8a9 76bd
00000090: ddac 69bd 2e8c b2bd 6b10 15be 6a28 223f
000000a0: 2bbd aebd 0831 893c b611 e3bd 1ee2 40bd
000000b0: 3b7e debe 82a9 bd3e 0e9f a03e 9580 033f
000000c0: adb6 42bd 60e0 26be a0f6 b4bd 289a c1bd
000000d0: 043c d2bd 8b91 953e bdfd 163d 906c 37bc
000000e0: a022 ce3c e497 59bd 6013 f6bd 85f9 14be
000000f0: a898 febd 7460 e0be 7de9 93bd 236f f8bd
00000100: e39a 67bb 6e21 f8bd 4bcc 04bd ffb1 b5bd
00000110: 721d 013d 9f08 b5ba ae7f 4abd 6c3b bfbd
00000120: 1b5c 73bd b8cf 0c3f ce24 01be 1826 e1bc
00000130: 706f fcbe 6116 3d3e e329 fcbd 6660 55be
00000140: f8e0 48ba edb1 04be 303d 2a3f 5d05 89bd
00000150: 02fb 723e 121e aabd 7791 06bd 51b9 92bd
00000160: bff8 b2be 9a5f dfbd b2aa 76bd 27f5 14be
00000170: c41b 55bd f22d 123b d90e 0fbe d21f 1bbe
00000180: 6894 433e 794b 25be df86 19be 7c7d cdbd
00000190: 70cd 8e3f f6f7 d1bd 38ac e0bd 5090 a6bd
000001a0: d2af 553f 552f afbb 0d9f 09bd 8955 09be
000001b0: 11fe 4abd 534b 42bd fbc0 8ebd 14f1 12be
000001c0: 52d4 783d 3703 1dbe 359b 0e3c abd6 25bd
000001d0: c643 d6bd d4d5 e8bd 3524 373f be91 8d3e
000001e0: f5bc cebe b385 b9bd c4b6 88bd 54a5 f13c
000001f0: 6427 a93e 7fa5 10be 3a7e ffbc d112 a0bd

fc3.weight f4 [1, 128]
0.0038351642 -0.008672799 -0.0042201504 -0.0072395843 0.021677446 0.01612575 0.015514658 0.006114007
-0.006558286 0.08904602 -0.0170515 0.024602842 0.04061658 0.03564356 0.015457149 0.017374096
-0.0154178515 -0.072251104 0.017979098 -0.05651505 0.017362753 0.01728485 0.010845321 -0.030080779
0.05210538 0.03510258 0.020380037 0.1003735 -0.016006805 0.021227676 0.00085268746 0.012889075
-0.009316874 0.026308797 -0.013337022 -0.024835259 -0.009909715 0.014738908 0.0071894093 0.104868405
0.021402327 -0.00073343405 0.041125607 0.04837258 -0.0030045717 0.035160325 0.097735435 0.0472787
-0.0095637515 0.0011569022 0.002333169 0.004636666 0.034681566 0.016161993 0.030846784 -0.023099463
0.036239576 -0.063324325 0.013727795 0.0062300605 0.01794641 -0.14569448 -0.08506294 -0.022182692
0.001027543 -0.00942032 0.09080628 -0.016496804 0.013092436 -0.086191595 -0.013375068 0.0177086
0.035450064 0.016630366 0.02219453 -0.008784374 -0.16988616 0.03573609 0.002190034 -0.13757354
0.038713653 -7.387549e-05 0.025667053 0.0053373002 0.050785076 0.009158555 0.01933569 -0.02249014
-0.13400732 0.033663217 -0.0027875407 -0.015724555 -0.014074353 -0.0028384388 -0.023065297 0.02692369
0.022676287 -0.03021074 0.020101665 -0.003067944 0.24270381 0.015930383 0.020208914 0.05621914
0.093370706 0.009773463 0.0057590343 -0.052464943 0.0057826145 0.028202834 -0.011290745 -0.004403881
0.019396946 0.014286747 0.027649514 -0.051400084 0.00759596 -0.018014228 0.10346147 -0.007974108
-0.18682261 -0.14912283 0.047611535 -0.024289394 -0.047231134 0.019546146 0.00872371 0.04875644
00000000: 6157 7b3b 5b18 0ebc 3049 8abb 093a edbb
00000010: e694 b13c 261a 843c 3131 7e3c 0258 c83b
00000020: e4e6 d6bb c25d b63d 96af 8bbc e68b c93c
00000030: 925d 263d fbfe 113d fb3f 7d3c 1f54 8e3c
00000040: 289b 7cbc 63f8 93bd e748 933c 537c 67bd
00000050: 553c 8e3c f598 8d3c 93b0 313c f76b f6bc
00000060: 736c 553d b9c7 0f3d 09f4 a63c 9f90 cd3d
00000070: b420 83bc aae5 ad3c e386 5f3a b32c 533c
00000080: cda5 18bc 8c85 d73c 8683 5abc 5073 cbbc
00000090: 5b5c 22bc 767b 713c 2395 eb3b 3fc5 d63d
000000a0: ef53 af3c ed43 40ba 5373 283d 5422 463d
000000b0: 59e8 44bb 4604 103d 8429 c83d 4fa7 413d
000000c0: 48b1 1cbc 32a3 973a 15e8 183b 2cef 973b
000000d0: 420e 0e3d 2866 843c 65b2 fc3c 163b bdbc
000000e0: f36f 143d 2fb0 81bd 8cea 603c 8925 cc3b
000000f0: 5a04 933c ef30 15be 7b35 aebd 7ab8 b5bc
00000100: 9fae 863a b057 1abc a5f8 b93d 4e24 87bc
00000110: a881 563c 3885 b0bd 1a23 5bbc a011 913c
00000120: 1634 113d 683c 883c 4ed1 b53c 56ec 0fbc
00000130: a3f6 2dbe 0260 123d ac86 0f3b 14e0 0cbe
00000140: 3592 1e3d 9aed 9ab8 b643 d23c 85e4 ae3b
00000150: 0304 503d c40d 163c e265 9e3c 3e3d b8bc
00000160: 3739 09be 71e2 093d 2caf 36bb c8d0 80bc
00000170: 1d98 66bc 1a05 3abb 6ff3 bcbc 128f dc3c
00000180: 9fc3 b93c 847c f7bc 3fac a43c 8f0f 49bb
00000190: 5987 783e 6f80 823c 2a8d a53c 0a46 663d
000001a0: 2439 bf3d e020 203c 48b6 bc3b 7be5 56bd
000001b0: 167c bd3b a109 e73c d1fc 38bc 6e4e 90bb
000001c0: 58e6 9e3c f612 6a3c 3c81 e23c e588 52bd
000001d0: 88e7 f83b 9392 93bc 9be3 d33d d5a5 02bc
000001e0: 6d4e 3fbe a8b3 18be 5004 433d 8dfa c6bc
000001f0: 6f75 41bd 3d1f a03c e4ed 0e3c d5b4 473d
