checkpoint_actor.pth (torch_old, 89090 bytes, 10 tensors)

fc1.weight f4 [128, 33]
0	0xbe1e7fbb	-0.15478413
1	0x3e025b51	0.12730147
2	0xbfcb739f	-1.589466
3	0xbd4834ef	-0.048878606
4	0x3e8e349e	0.2777452
5	0x3e555a8f	0.20835327
6	0xbea3438c	-0.31887472
7	0x3f07bfc6	0.53027
8	0x3d740b92	0.059581347
9	0x3d67f1c9	0.05662707
10	0xbd0e43bc	-0.034732565
11	0xbe6f0308	-0.23341
12	0xbcddf35f	-0.027093587
13	0x3d17b27e	0.037035458
14	0xbe078820	-0.13235521
15	0x3f189fd8	0.596189
16	0xbf60e6a0	-0.87851906
17	0xbd96dbab	-0.07366117
18	0xbe9893e3	-0.2980033
19	0x3e6024cf	0.21889041
20	0xbe8973e2	-0.26846224
21	0xbd2efde5	-0.0427226
22	0x3e8e8cd0	0.27841806
23	0xbe468fed	-0.19390841
24	0x3e43579e	0.19076392
25	0xbe05daf7	-0.1307181
26	0xbd0e1aed	-0.034693647
27	0x3d551a5f	0.052027103
28	0xbd716430	-0.058933437
29	0xbd14c8a9	-0.036324177
30	0xbdab5e01	-0.08367539
31	0x3bf1a300	0.0073741674
32	0x3f8d7f89	1.1054546
33	0x3e566c8b	0.20939843
34	0x3f313ca7	0.69233173
35	0x3f195aed	0.59904367
36	0xbecf1916	-0.40448827
37	0xbe15028a	-0.1455175
38	0x3ecf090e	0.40436596
39	0x3ec811d6	0.39076108
40	0x3e8503e7	0.2597954
41	0x3e5121e4	0.20423084
42	0x3eb1cc27	0.34726068
43	0x3e67a8c0	0.22622967
44	0x3e878c57	0.26474258
45	0xbec337da	-0.3812855
46	0x3e86dc8e	0.26340145
47	0x3efa2173	0.48853645
48	0xbf0377fd	-0.5135496
49	0xbe156bcb	-0.14591901
50	0x3eccbe84	0.39989102
51	0xbe1af58a	-0.15132728
52	0x3db5606f	0.08856284
53	0xbed6ad6a	-0.4192918
54	0xbefe3a81	-0.4965401
55	0xbd337618	-0.043813795
56	0x3eb5ed03	0.35532388
57	0x3ef4f45a	0.47842675
58	0xbe2516a7	-0.16121922
59	0x3ca7d042	0.020485047
60	0xbd73a9f2	-0.059488244
61	0x3e02e73c	0.12783521
62	0x3d706856	0.058693253
63	0xbd2d6533	-0.04233284
64	0xbbae50e0	-0.0053196996
65	0x400203cb	2.0314815
66	0xbcd7e672	-0.026355002
67	0xbcf5ef3e	-0.030021306
68	0x3f9023e9	1.1260959
69	0x3e5c2888	0.21499836
70	0x3e9987fd	0.29986563
71	0xbe1a0bf8	-0.15043628
72	0x3fa0173c	1.250709
73	0xbd82cb84	-0.06386474
74	0x3ecab308	0.39589715
75	0x3e7473e7	0.23872338
76	0xbd8649cd	-0.06557045
77	0x3e2643fe	0.16236874
78	0x3e56a1e6	0.20960197
79	0xbe611b90	-0.2198317
80	0x3f87e728	1.0617418
81	0x3cb55e40	0.022139668
82	0xbde0508f	-0.10952865
83	0x3ea40f98	0.32043147
84	0x3c99cdc7	0.01877488
85	0xbf19be3a	-0.6005589
86	0xbea3fdb3	-0.32029495
87	0xbf072988	-0.52797747
88	0x3efa24ce	0.48856205
89	0x3d8667e9	0.06562788
90	0x3f117938	0.5682559
91	0x3ebce13d	0.36890593
92	0x3e965a0a	0.2936557
93	0xbd4cf627	-0.050039437
94	0x3e439379	0.19099225
95	0xbd49c9b8	-0.04926464
96	0xbd8043d6	-0.06262939
97	0xbce619d6	-0.028088491
98	0x3f8f4d56	1.1195476
99	0xbc7b550b	-0.0153401
100	0x3df0d713	0.11759772
101	0x3f80d023	1.0063518
102	0xbe968212	-0.2939611
103	0xbe0503ef	-0.12989782
104	0x3e65700e	0.22406027
105	0x3f06e1d3	0.5268833
106	0xbe6ffcf7	-0.23436342
107	0xbd6ee6c7	-0.058325555
108	0x3e1ecaad	0.15507002
109	0x3e26dd40	0.16295338
110	0x3e7fcf8e	0.2498152
111	0xbdc21b83	-0.09477904
112	0x3e664255	0.22486241
113	0x3f1bc480	0.6084671
114	0x3db6d107	0.089265876
115	0x3eac7040	0.3367939
116	0x3e1be719	0.15224876
117	0x3dbcf991	0.092272885
118	0xbf00e177	-0.5034403
119	0xbe019907	-0.12656032
120	0xbe8cdb43	-0.27511033
121	0x3e57dec1	0.21081068
122	0x3ee0edb5	0.43931356
123	0x3e6195c5	0.22029789
124	0x3cf54d18	0.029943988
125	0x3e50d693	0.20394354
126	0x3a5cd8ab	0.000842462
127	0xbe88ba19	-0.2670448
128	0xbd819e09	-0.06328971
129	0xbd54ff28	-0.05200115
130	0xbd98c07f	-0.07458591
131	0x401fea5e	2.4986796
132	0xbf1661ae	-0.587428
133	0xbf83e7d6	-1.0305126
134	0x3ecc033d	0.3984622
135	0x3d2bd9ed	0.041955877
136	0xbf13aa5c	-0.5768182
137	0x3e00eb9a	0.12589875
138	0x3f88d546	1.0690086
139	0x3e97ce78	0.2964971
140	0xbdc81bff	-0.09770965
141	0x3e8985e9	0.26859978
142	0xbe19fe5a	-0.15038434
143	0xbe415b17	-0.18882404
144	0xbe500b64	-0.20316845
145	0x3f23cf0f	0.6398782
146	0xbc16caf5	-0.009203662
147	0x3dce3531	0.10068739
148	0xbec27766	-0.3798172
149	0x3c81a1d7	0.015824242
150	0x3ea6b53c	0.32560146
151	0x3e6f51a3	0.23370986
152	0xbcee56da	-0.029094148
153	0xbdde1cda	-0.10845347
154	0x3e31ccfd	0.17363353
155	0xbe997878	-0.29974723
156	0xbdf37050	-0.11886656
157	0x3e2f3fef	0.17114232
158	0xbf008ab1	-0.50211626
159	0x3c27b3bd	0.010235724
160	0xbe2388ed	-0.15970202
161	0xbd8141a7	-0.0631135
162	0xbd10e02f	-0.035370048
163	0x3d3ef60a	0.04662136
164	0x3f99c851	1.2014257
165	0x3f6c6d45	0.9235423
166	0x3fa3bef1	1.2792646
167	0x3eb05bbe	0.34444994
168	0xbdd25f66	-0.10272102
169	0x3f0f05ea	0.558684
170	0xbe8576d0	-0.2606721
171	0xbe7b12e0	-0.24518919
172	0x3d837fef	0.06420886
173	0x3e5cb550	0.2155354
174	0x3ea6bc8f	0.32565734
175	0xbcd6703e	-0.026176568
176	0x3f26bd41	0.6513253
177	0x3e656512	0.22401837
178	0x3e9eebb0	0.3103919
179	0x3f67040e	0.9024056
180	0xbcb57a46	-0.022153031
181	0x3e72a9f3	0.23697643
182	0xbe7d2458	-0.24720895
183	0x3ea2ed05	0.31821457
184	0xbee6682e	-0.45001358
185	0x3eb1169a	0.34587556
186	0xbde05763	-0.10954168
187	0x3e904665	0.28178707
188	0x3e8f92a2	0.2804156
189	0x3ee8002b	0.45312628
190	0xbeb9b15e	-0.36268133
191	0x3e42bd37	0.19017492
192	0x3cfd6e62	0.030936424
193	0x3d6592c6	0.056048177
194	0x3c598898	0.013277195
195	0x3cd2ffb0	0.025756687
196	0x3d71dc36	0.0590479
197	0x3f6a097a	0.9142071
198	0x3ec42385	0.3830835
199	0x3e7e479c	0.24832004
200	0x3e554622	0.20827535
201	0xbecffc68	-0.40622258
202	0x3f12d36f	0.5735387
203	0xbda946b3	-0.08265438
204	0x3e6f02b6	0.23340878
205	0xbea6c39d	-0.32571116
206	0xbe29893e	-0.1655626
207	0xbc8b24ce	-0.016985323
208	0x3ddae2a0	0.106877565
209	0x3edbb652	0.42912537
210	0x3e52f182	0.2059994
211	0x3f2a4b21	0.6652089
212	0xbef9e04b	-0.48803934
213	0x3d9cbff2	0.07653798
214	0x3e8e4385	0.27785888
215	0xbeb79111	-0.35852864
216	0x3e82c313	0.25539455
217	0xbe5f2c53	-0.21794252
218	0x3e93b673	0.28850135
219	0x3c3deb37	0.011591724
220	0x3d88cfc8	0.06680256
221	0x3d77a7b4	0.06046267
222	0xbe8ab862	-0.27093798
223	0x3e96af3c	0.29430568
224	0xbeb6dceb	-0.35715422
225	0xbce55182	-0.027992968
226	0x3dcaf90e	0.09910785
227	0x3d795dce	0.060880475
228	0xbd99ba26	-0.07506208
229	0xbd9f67fc	-0.07783505
230	0x400e035d	2.2189553
231	0xbebc0ace	-0.36726993
232	0xbf775831	-0.96618944
233	0x3edbd2c0	0.42934227
234	0x3e1e752d	0.15474387
235	0xbe4bb6bd	-0.19893928
236	0xbebbfb6d	-0.3671526
237	0x3ee3b025	0.44470325
238	0xbc2ffac8	-0.010740943
239	0x3d305ea3	0.043059003
240	0xbd571d45	-0.052518148
241	0x3c4a982d	0.012365383
242	0xbccaf65c	-0.024775676
243	0x3e584be1	0.21122696
244	0x3f310125	0.6914237
245	0x3f98d597	1.1940182
246	0xbec61af2	-0.38692433
247	0x3e4ea5ef	0.20180486
248	0xbd720e91	-0.059095923
249	0x3e68822d	0.22705908
250	0xbdf7e86c	-0.12104878
251	0x3e4741fd	0.19458766
252	0x3dc0010f	0.09375202
253	0xbe62896c	-0.22122735
254	0x3d69dd1d	0.057095636
255	0x3e9b746a	0.30362254

fc1.bias f4 [128]
0	0x3d9efd43	0.077631496
1	0x3e0c06fc	0.1367454
2	0x3e2a422c	0.16626805
3	0x3e186e4e	0.14885828
4	0xbdc33750	-0.095320344
5	0x3d2965d0	0.04135686
6	0xbddf04c9	-0.108895846
7	0x3bc1a12d	0.005909106
8	0x3e170dea	0.14751402
9	0x3dafa73f	0.085768215
10	0xbe23dd10	-0.16002297
11	0xbd995943	-0.074877284
12	0xbe1c83ee	-0.15284702
13	0x3dab2df5	0.08358375
14	0xbcc0aef0	-0.023520917
15	0xbe029010	-0.12750268
16	0xbd64172d	-0.055686165
17	0x3d640d6d	0.055676866
18	0x3c957864	0.018245883
19	0x3e244119	0.16040458
20	0xbb96af7c	-0.004598556
21	0x3d604934	0.054757312
22	0xbd543f74	-0.051818326
23	0x3ca808e9	0.020512061
24	0x3bcaede7	0.006192911
25	0x3e18bfc3	0.14916901
26	0x3da84047	0.08215385
27	0xbdc35663	-0.09537961
28	0xbe1f4384	-0.15553099
29	0xbe2d1522	-0.16902593
30	0xbd8160fe	-0.06317328
31	0x3caeef2f	0.021354286
32	0x3e260cfd	0.16215892
33	0xbc8c1d88	-0.017103925
34	0x3d8dca16	0.069233105
35	0x3dbbd2bf	0.09171056
36	0xbe08e9ab	-0.13370387
37	0xbe132036	-0.14367756
38	0x3d86e6cd	0.065869905
39	0x3db249de	0.08705495
40	0xbdaa7c8b	-0.08324536
41	0x3cf9f135	0.030510524
42	0xbe2f355e	-0.17110202
43	0x3b05bb43	0.0020405806
44	0x3d2defe1	0.042465094
45	0xba2092b3	-0.00061253755
46	0xbcd98a44	-0.026555188
47	0x3d9c2fcf	0.07626306
48	0xbd437fb1	-0.047729198
49	0x3e03a2e0	0.128551
50	0xbe1b27b3	-0.15151863
51	0xbdcca2f6	-0.0999202
52	0xbe169963	-0.1470695
53	0xbe1fb2a9	-0.15595497
54	0x3e034fc7	0.12823401
55	0xbd2d8765	-0.04236545
56	0xbe0c145a	-0.13679639
57	0x3d167c02	0.036739357
58	0xbe07afb5	-0.1325062
59	0x3c16d9ab	0.0092071695
60	0x3da97a93	0.08275332
61	0xbd14dbc8	-0.036342412
62	0x3db1f4b3	0.08689251
63	0x3d0c574f	0.03426295
64	0xbe0476d6	-0.12935957
65	0x3d0c6fe2	0.034286387
66	0x3de68e76	0.11257641
67	0xbd1ec1d5	-0.03875907
68	0x3c68a8a2	0.014200361
69	0x3ca45511	0.020060094
70	0x3c5c7b8e	0.013457192
71	0x3d3603f2	0.044437356
72	0xbe2a128a	-0.16608635
73	0x3e0332dd	0.12812372
74	0x3d8d75f2	0.06907262
75	0x3cb09305	0.02155448
76	0x3cf46b0e	0.029836204
77	0xbe106172	-0.14099672
78	0xbd4ff26a	-0.050768293
79	0xbbdda5a7	-0.006764132
80	0x3d14b625	0.03630652
81	0xbdc31097	-0.09524649
82	0x3c8cb0e3	0.01717419
83	0xbd5c23a8	-0.053744942
84	0x3e024ec0	0.12725353
85	0xbe19c145	-0.15015133
86	0x3c5056c0	0.012715995
87	0x3df0cc81	0.11757756
88	0xbe077341	-0.1322756
89	0xbb4d7975	-0.0031352912
90	0x3da65e61	0.0812347
91	0x3d908fca	0.070586756
92	0x3cc40874	0.023929812
93	0x3d90ae86	0.07064538
94	0xbdf885b8	-0.1213488
95	0x3e114658	0.1418699
96	0x3b9cd018	0.004785549
97	0x3de8301e	0.113373026
98	0x3d215596	0.03938826
99	0xbca637a4	-0.020290203
100	0x3d9a91eb	0.07547363
101	0x3e23c905	0.15994652
102	0x3e2f486a	0.17117468
103	0xbe0e393e	-0.13889024
104	0x3c3723a6	0.011177933
105	0xbe01546c	-0.1262986
106	0x3dcfb878	0.101426065
107	0x3e033905	0.1281472
108	0xbdf2264a	-0.11823709
109	0xbc80756f	-0.015680997
110	0x3df76706	0.12080197
111	0x3deb783f	0.114975445
112	0xbe06e624	-0.13173729
113	0x3dee6ab8	0.11641449
114	0xbd0289d4	-0.031869724
115	0xbe17e2e0	-0.1483264
116	0x3d1496e3	0.03627671
117	0x3da3ab16	0.079916164
118	0x3dd6d552	0.10489906
119	0xbdf1c194	-0.118045
120	0xbe00e6fc	-0.12588114
121	0xbdef34ac	-0.11679968
122	0x3dc2e902	0.09517099
123	0xbe1ae758	-0.15127313
124	0xbb03c88a	-0.0020108544
125	0xbd50d0d9	-0.050980423
126	0x3d9947a6	0.07484369
127	0x3d0b271c	0.033972844

bn1.weight f4 [128]
0	0x3fa02386	1.2510841
1	0x3f801aa8	1.0008135
2	0x3f883a71	1.0642835
3	0x3f6dd10f	0.92897123
4	0x3f86bce8	1.05264
5	0x3f84f7f7	1.0388173
6	0x3ef2996b	0.47382674
7	0x3fa811e0	1.3130455
8	0x3fa8cbf8	1.3187246
9	0x3f261906	0.6488193
10	0x3f9e9e8a	1.2392132
11	0x3f922c3c	1.1419749
12	0x3fe6cb1c	1.8030734
13	0x3f81b7ff	1.0134276
14	0x3fb0c24f	1.3809298
15	0x3f569f33	0.8383667
16	0x3f9301bd	1.1484905
17	0x3f61775c	0.8807275
18	0xbfa6bfea	-1.3027318
19	0x3fcde505	1.6085516
20	0x3fb5e832	1.4211485
21	0xba15f89f	-0.00057209464
22	0x3fcb08bb	1.5862039
23	0x3f7b77a8	0.98229456
24	0x3f975320	1.1822243
25	0x3f8a8ce0	1.0824242
26	0x3fe96d6a	1.8236516
27	0x3f950387	1.1641701
28	0x3fc58c79	1.5433494
29	0x400aac48	2.1667652
30	0x3ee69265	0.45033565
31	0x3f866d4b	1.0502104
32	0x3fa47bbe	1.2850263
33	0x3b5dc4de	0.0033839266
34	0x3f8c3c7c	1.0955958
35	0x3f8eb889	1.1150066
36	0x3fa735d7	1.3063306
37	0x3fc86a2d	1.5657402
38	0x3f94b381	1.161728
39	0x3fd484a5	1.660298
40	0x3fcc6b8d	1.5970322
41	0x3f9e51b3	1.2368683
42	0x3f868ee4	1.0512357
43	0x3fa352f0	1.2759686
44	0x3f5bf918	0.8592696
45	0x3fabf2a9	1.3433429
46	0x3f89e153	1.0771888
47	0x3f9322c7	1.1494988
48	0x3f654386	0.8955616
49	0x3f7995a3	0.9749395
50	0x3fb18dbb	1.3871378
51	0x3f9b0c7b	1.2113184
52	0x3f9f91c2	1.2466357
53	0x3fb63fd0	1.4238224
54	0x3fc85132	1.5649779
55	0x3f2818be	0.65662754
56	0x3f6f0b7b	0.9337689
57	0x3f2dba04	0.6786196
58	0x3f9c3cb9	1.2206031
59	0x3f37e78c	0.7183769
60	0x398942c9	0.00026180435
61	0x3fa4018d	1.2812973
62	0x3f894358	1.0723677
63	0x3fb42fc8	1.4077082
64	0x3fb7b11b	1.4350923
65	0x3fda9102	1.7075503
66	0x3f5638f4	0.83680654
67	0x3f57a575	0.8423684
68	0x3ffa89b8	1.9573278
69	0x3f7049aa	0.938624
70	0x3fd7289a	1.6809266
71	0x3f68ea37	0.90982383
72	0x3f921da8	1.14153
73	0x3f82bde6	1.0214202
74	0x3fc293be	1.5201337
75	0x3fc9ac5e	1.5755727
76	0x3f443ffe	0.76660144
77	0x3f8cb8a0	1.0993843
78	0x3f99bd75	1.2010943
79	0x3f963edb	1.1737932
80	0x3f8d18fb	1.1023248
81	0x3f476cd1	0.77900416
82	0x3f9d139a	1.2271607
83	0x3fb07270	1.3784924
84	0x3f6cdf0f	0.9252786
85	0x3f7fea25	0.9996665
86	0x3fb4904d	1.4106537
87	0x3faadae1	1.3348047
88	0x3f9de719	1.233615
89	0x3f83ba16	1.0291164
90	0x3f85d82f	1.0456599
91	0x3f8743d9	1.056758
92	0x3f9e5ad7	1.2371472
93	0x3f45184e	0.7699021
94	0xbc0c3f74	-0.00856005
95	0x3fdaf94b	1.7107328
96	0x3fa88125	1.3164412
97	0x3fa23bc5	1.267449
98	0x3f996ff3	1.1987289
99	0x3fb3ac20	1.4036903
100	0x3f81f54f	1.0152987
101	0x3fba289e	1.4543645
102	0x3f8fc878	1.1233053
103	0x3fe22ec4	1.7670522
104	0x3f846148	1.0342188
105	0x3fcaadc3	1.5834278
106	0xbc463a16	-0.01209881
107	0x3fcc1fd9	1.5947219
108	0x3fb9987b	1.4499658
109	0x3fca898a	1.5823224
110	0x3faff830	1.3747616
111	0x3ed7fc0a	0.42184478
112	0x3f49f0f2	0.7888328
113	0x3fa545e4	1.2911954
114	0x3f9b0462	1.2110713
115	0x3f88e4d1	1.0694829
116	0x3fac7d06	1.3475654
117	0x400f5e64	2.2401361
118	0x3f8c8a01	1.0979615
119	0x3f676f94	0.9040463
120	0x3f5c7fc0	0.8613243
121	0x3fc24eda	1.5180314
122	0x3fe9fd9b	1.8280519
123	0x3f416892	0.75550187
124	0x3f94be90	1.1620655
125	0x3f842205	1.0322882
126	0x3fb0fd5a	1.3827317
127	0x3f96ebb8	1.1790686

bn1.bias f4 [128]
0	0x3e36e626	0.17861232
1	0xbef89aa8	-0.48555493
2	0x3d99621e	0.074894175
3	0xbe9e3c89	-0.3090556
4	0xbbd5dcf0	-0.006526582
5	0xbf277489	-0.65412194
6	0xbecde228	-0.40211606
7	0xbe9d80a5	-0.3076221
8	0xbeefb1c9	-0.46815327
9	0xbf2b88aa	-0.6700541
10	0xbe611409	-0.21980299
11	0xbf23fce7	-0.64057773
12	0x3de4e44e	0.11176358
13	0x3dad4a80	0.08461475
14	0xbf14b662	-0.58090794
15	0xbe5fb0ac	-0.21844739
16	0xbed9f784	-0.42571652
17	0xbe1aa222	-0.15100911
18	0x3f04a9c5	0.5182155
19	0xbe19c0b6	-0.1501492
20	0xbecdb46e	-0.4017672
21	0xbc03ded9	-0.0080487365
22	0x3d004990	0.031320155
23	0xbf04b166	-0.5183319
24	0xbe53ac94	-0.20671302
25	0xbf1691a5	-0.58815986
26	0x3ee4d555	0.4469401
27	0xbea22999	-0.31672361
28	0xbe2c7959	-0.16843165
29	0x3edd1052	0.43176514
30	0xbf07d8bd	-0.5306509
31	0xbcfe7094	-0.03105954
32	0xbf221748	-0.63316774
33	0xbcbcbb2f	-0.023038475
34	0xbe4974d4	-0.19673473
35	0xbe932d7e	-0.28745645
36	0xbc82087c	-0.015873186
37	0xbddf0cd7	-0.10891121
38	0xbed7d136	-0.42151803
39	0x3efc0a75	0.49226728
40	0xbe8941c2	-0.26807982
41	0xbe91eae3	-0.28499517
42	0xbf2e35cc	-0.6805084
43	0xbeee7e04	-0.46580517
44	0xbd661879	-0.056175683
45	0x3e540331	0.20704342
46	0xbce1c3ab	-0.027559122
47	0x3e0a652e	0.1351516
48	0xbdd358ce	-0.103196725
49	0xbdec5f7a	-0.11541648
50	0x3df64f31	0.12026823
51	0xbe5d7717	-0.2162746
52	0xbea76afa	-0.32698804
53	0x3e9ae180	0.30250168
54	0xbe54e619	-0.207909
55	0xbe9ea208	-0.30982995
56	0xbf03b0b2	-0.5144149
57	0x3e17de0d	0.148308
58	0xbeb6c3fc	-0.356964
59	0xbe8195d7	-0.2530963
60	0xbdf7ad2d	-0.120935775
61	0xbeded37f	-0.43520734
62	0xbc39ee7c	-0.011348363
63	0x3de1bbb0	0.11022127
64	0xbf1761c0	-0.5913353
65	0xbe9c8d49	-0.30576542
66	0xbf10701d	-0.5642107
67	0xbe5f9c83	-0.21837048
68	0xbe82eb1b	-0.25569996
69	0xbec3e640	-0.38261604
70	0xbe352bb1	-0.17692448
71	0xbd1bd084	-0.038040653
72	0xbed0dded	-0.40794316
73	0xbeb499c9	-0.3527358
74	0xbdc66d93	-0.096888684
75	0xbe08f45d	-0.13374467
76	0xbefd6149	-0.49488285
77	0xbf263528	-0.6492486
78	0xbef05672	-0.46940953
79	0xbd464f8b	-0.0484157
80	0xbf0bdd95	-0.5463498
81	0xbf2bc6a5	-0.6709998
82	0x3f3ad536	0.72981584
83	0x3d9f80da	0.07788248
84	0x3e03fd83	0.12889676
85	0xbe1c1c3b	-0.15245144
86	0xbd93973e	-0.072065815
87	0xbeb265cb	-0.34843287
88	0x3e0a8020	0.13525438
89	0xbef1e738	-0.47246718
90	0xbef8462f	-0.48491046
91	0xbf1d22a6	-0.61380994
92	0xbf215e21	-0.63034254
93	0xbf5041b4	-0.81350255
94	0xbd64e828	-0.055885464
95	0x3e89c491	0.2690778
96	0xbf1a6d4f	-0.6032304
97	0x3e6c1a72	0.23056963
98	0xbe07afaa	-0.13250604
99	0xbe47995a	-0.19492093
100	0xbe0297cc	-0.12753218
101	0xbcbf11d1	-0.023323925
102	0xbf39fe4e	-0.72653663
103	0xbe90bb87	-0.28268072
104	0xbf3d0002	-0.73828137
105	0x3d8786b9	0.06617493
106	0xbda7d5d6	-0.08195083
107	0xbea7346f	-0.3265719
108	0x3e8c949a	0.27457124
109	0x3d9287f7	0.071548395
110	0xbf18e797	-0.5972838
111	0xbede3ada	-0.43404275
112	0xbeacfdba	-0.33787328
113	0x3bc0c99c	0.0058834087
114	0xbe5a0557	-0.212911
115	0xbe607e1b	-0.21923105
116	0xbcf72413	-0.030168569
117	0xbefaae04	-0.48960888
118	0xbe86b314	-0.263085
119	0xbf0839cd	-0.53213197
120	0xbeb3ab50	-0.3509164
121	0xbddcafb8	-0.10775703
122	0xbe6d92e4	-0.23200566
123	0xbe419aeb	-0.18906753
124	0xbe82d0d5	-0.2554995
125	0xbf08c4bc	-0.5342519
126	0x3d09e71a	0.03366766
127	0xbeb8276b	-0.35967574

bn1.running_mean f4 [128]
0	0x3ef9d80f	0.48797652
1	0xc080267f	-4.004699
2	0xc0a0ba05	-5.0227075
3	0xc09460ad	-4.6368012
4	0x3ffeeabc	1.9915385
5	0xc0e4930c	-7.14295
6	0xbe60f8d1	-0.21969916
7	0xbf1ad30c	-0.6047828
8	0xc0c5e1b5	-6.183802
9	0x3f1e5312	0.61845505
10	0x40aa564d	5.323035
11	0xc0d47753	-6.639566
12	0xbf98c806	-1.1936042
13	0xbfc1e175	-1.5146929
14	0xbfbb74a8	-1.4644976
15	0x3fd5bf7c	1.6699061
16	0xc0c3ea8c	-6.122381
17	0x40838177	4.109554
18	0x3f52f3b7	0.8240313
19	0x3f7fe9ee	0.99966323
20	0xbfc78bf7	-1.5589589
21	0x3e273d78	0.16332042
22	0x40819f51	4.050698
23	0x3f96e6ff	1.1789244
24	0xc0e18d85	-7.0485253
25	0x3fff22ea	1.993253
26	0x3ffdf2b7	1.9839696
27	0xc036c400	-2.855713
28	0x40362c6a	2.8464608
29	0x3f0cf33d	0.5505865
30	0xc0cc86df	-6.3914638
31	0x3fc65e79	1.5497581
32	0xbfe3515f	-1.7759207
33	0x3ec9f3ec	0.3944391
34	0x3d852398	0.065009296
35	0xc00bcf59	-2.1845305
36	0x3eb87d41	0.3603306
37	0xbfc1badd	-1.5135151
38	0xc09c3ae8	-4.8821907
39	0x3f3190dd	0.6936167
40	0x3e1ed1cc	0.15509719
41	0xbd5dd7ea	-0.05416099
42	0xbfefd284	-1.8736119
43	0xc04bb83b	-3.1831195
44	0x3ee902c9	0.45509937
45	0xbe10563b	-0.14095394
46	0xbeb950c7	-0.3619444
47	0xbf893f41	-1.0722429
48	0x3f41b56b	0.75667447
49	0x40491977	3.1421793
50	0xbf938ed6	-1.1527965
51	0xc0289554	-2.6341143
52	0x40b8f1c8	5.7795143
53	0x3e3480a6	0.176272
54	0x3f854b7d	1.0413662
55	0xbfcc52f4	-1.5962815
56	0xc0bef79b	-5.9677253
57	0xbfa1f595	-1.2653071
58	0xbed01bb3	-0.40646133
59	0x4014a8ae	2.3227954
60	0x3e77cb93	0.24198751
61	0xbf5503fb	-0.832092
62	0x3d46a1ea	0.048494257
63	0x3f7d0685	0.98838073
64	0xbfcd8eaa	-1.6059163
65	0x3ee32895	0.443669
66	0x3d95ec63	0.07320478
67	0x4087b95f	4.2413783
68	0x3f13d706	0.57749975
69	0xc06f176f	-3.7358053
70	0x3f70bd67	0.94039005
71	0x3fc66842	1.5500567
72	0xbfc8943a	-1.5670235
73	0xc1043423	-8.262729
74	0xbf8edfe6	-1.1162078
75	0xbe96398c	-0.2934078
76	0xc04a22ac	-3.1583662
77	0xbff99e37	-1.9501408
78	0xc05aab26	-3.416696
79	0xc06683bd	-3.6017907
80	0xc0ba6351	-5.8246236
81	0xc0873282	-4.2249155
82	0xbf19f0c0	-0.6013298
83	0x40a5ad9e	5.1774435
84	0x40b8e19c	5.77754
85	0xc0954337	-4.664455
86	0x4082085f	4.063522
87	0x40b077aa	5.5146074
88	0xbe54e000	-0.20788574
89	0x4093af61	4.6151586
90	0xbef85495	-0.4850203
91	0x404c0c39	3.188246
92	0xbec02ff5	-0.37536588
93	0x40974038	4.726589
94	0x3e272050	0.1632092
95	0x409e6b71	4.9506154
96	0xbf011db0	-0.50435925
97	0x3f5289fb	0.8224179
98	0xbfb2dbee	-1.3973367
99	0x400932b5	2.14372
100	0xc00421be	-2.0645595
101	0xbf6410b5	-0.8908799
102	0xbf9bf697	-1.2184628
103	0xbfed82f0	-1.8555584
104	0xbf2461de	-0.64211833
105	0x40be6aa9	5.95052
106	0x3f3a7bbc	0.72845054
107	0xbfe89226	-1.8169601
108	0x409f85e8	4.985096
109	0x3ffdf499	1.984027
110	0xc09a0862	-4.8135233
111	0xc0bc35b1	-5.881554
112	0x3f11d700	0.5696869
113	0x40376862	2.865746
114	0xc0520a9a	-3.281897
115	0xc0069377	-2.1027505
116	0x405cdc7a	3.4509568
117	0x3ffe24ed	1.9855019
118	0x3e8ac49f	0.27103135
119	0x3fb82b35	1.4388186
120	0xbcbc0769	-0.022952752
121	0xbfe8ca23	-1.8186687
122	0xbee224f5	-0.4416882
123	0x3d413bea	0.04717628
124	0x40471d74	3.1111727
125	0x3f64dcd4	0.89399457
126	0x402435f5	2.5657933
127	0xbf26f464	-0.6521666

bn1.running_var f4 [128]
0	0x402b3c09	2.6755393
1	0x413770f9	11.465081
2	0x416b0190	14.687881
3	0x41318cc0	11.096863
4	0x40e1a2cf	7.051124
5	0x41a8c2e5	21.095163
6	0x4115d606	9.364752
7	0x40979890	4.7373734
8	0x40db6e4f	6.8572154
9	0x417f5092	15.9571705
10	0x41a5bb13	20.716345
11	0x41567a17	13.404807
12	0x4018b999	2.386328
13	0x40a1dee6	5.0584593
14	0x417ea08a	15.914194
15	0x41af35a7	21.901197
16	0x41b99737	23.198835
17	0x40d209f3	6.5637145
18	0x4017771f	2.3666456
19	0x3fee438e	1.8614366
20	0x4133067d	11.189084
21	0x3e2931e5	0.1652294
22	0x4161cb63	14.112155
23	0x409df154	4.935709
24	0x420b2573	34.78657
25	0x411e1cc0	9.882019
26	0x3fe94050	1.8222752
27	0x408dca8f	4.4309764
28	0x410e06a1	8.876618
29	0x3ff21d23	1.8915142
30	0x415c8f6a	13.785013
31	0x40bf1107	5.9708285
32	0x40ec2c94	7.3804417
33	0x3e833741	0.25628093
34	0x406d841e	3.7111888
35	0x408dc0d6	4.4297895
36	0x40bd5814	5.9170017
37	0x405aae31	3.4168818
38	0x41c63186	24.774181
39	0x4003aac8	2.0572987
40	0x40987081	4.7637334
41	0x40909017	4.517589
42	0x410f58a4	8.959141
43	0x41401b33	12.00664
44	0x40c4f7df	6.1552577
45	0x40aef5b4	5.467493
46	0x4093887d	4.610411
47	0x3ff8cc8a	1.943742
48	0x4109033a	8.563288
49	0x411e546e	9.895613
50	0x3fff4b4d	1.9944855
51	0x411e11f4	9.879383
52	0x41819d18	16.201706
53	0x40814f2c	4.0409145
54	0x416e9919	14.912377
55	0x41a142ea	20.157673
56	0x40c2fd62	6.0934305
57	0x40839e23	4.113054
58	0x40e38dba	7.1110506
59	0x414113cc	12.067333
60	0x403aa573	2.9163482
61	0x4059d3fb	3.4035633
62	0x40610005	3.5156262
63	0x40879ecc	4.2381344
64	0x4066d80d	3.6069367
65	0x40db0cf8	6.845333
66	0x4125b4c7	10.356635
67	0x41585608	13.521004
68	0x409e835c	4.953535
69	0x40d3aaa7	6.6145816
70	0x40e3f00f	7.123054
71	0x41bf8d08	23.943863
72	0x416ccb65	14.799657
73	0x4185978d	16.699
74	0x4104e0a0	8.30484
75	0x408b573c	4.3543987
76	0x410f5acd	8.959668
77	0x40fad92f	7.8390117
78	0x41309a45	11.037663
79	0x40c3c51c	6.117811
80	0x4125ee67	10.370704
81	0x4152791e	13.15457
82	0x406c1093	3.6885116
83	0x4135fb66	11.373877
84	0x4197b118	18.961472
85	0x419bb993	19.465612
86	0x40814b44	4.0404377
87	0x414f0c90	12.940567
88	0x40cfd802	6.495118
89	0x41008d70	8.034531
90	0x405b40b5	3.4258244
91	0x413a7733	11.654101
92	0x405e95dd	3.477897
93	0x41efecfd	29.990717
94	0x3f9116ff	1.1335143
95	0x416b38b0	14.70134
96	0x412e1599	10.880273
97	0x4036ac01	2.8542483
98	0x40d9be6e	6.804496
99	0x40c58ff0	6.1738205
100	0x401b2989	2.42441
101	0x4063b1cb	3.5577266
102	0x4131818b	11.094127
103	0x40246788	2.568819
104	0x4154cd63	13.300143
105	0x41736a32	15.213427
106	0x3ea68fcc	0.32531583
107	0x409ea82b	4.9580283
108	0x411c944e	9.786207
109	0x4081178e	4.0341253
110	0x41122513	9.134051
111	0x4106b891	8.42006
112	0x40fba747	7.8641696
113	0x4125734d	10.34065
114	0x41504b25	13.018346
115	0x40d3a05b	6.6133246
116	0x41075a18	8.459496
117	0x40da0f5f	6.8143764
118	0x408b56d3	4.3543487
119	0x411618c1	9.381043
120	0x41786a6c	15.525982
121	0x40d16791	6.5438924
122	0x3fd39cac	1.6532187
123	0x41125fbf	9.1483755
124	0x415351f9	13.207513
125	0x40fa1e7a	7.8162203
126	0x40cce225	6.4026055
127	0x40b9f2db	5.8108954

fc2.weight f4 [128, 128]
0	0xbe61b59a	-0.22041932
1	0x3e436753	0.19082384
2	0xbe194a07	-0.14969645
3	0xbd654469	-0.055973444
4	0xbee9dbdf	-0.4567556
5	0x3e629e4c	0.22130698
6	0x3cf3c15e	0.02975529
7	0xbf7e4577	-0.99324745
8	0xbf669c78	-0.900825
9	0xbf2693a1	-0.65069014
10	0xbf41a39b	-0.7564027
11	0xbe815e06	-0.25267047
12	0x3ee752d5	0.45180383
13	0x3f623f73	0.88378066
14	0xbf82fe7b	-1.0233911
15	0xbec54666	-0.38530272
16	0x3f076c88	0.5289998
17	0xbe7c58c3	-0.24643235
18	0xbf80ba9b	-1.0056947
19	0xba76b282	-0.0009410755
20	0x3e9524b1	0.29129556
21	0xbdb15137	-0.086580686
22	0x3fa5cb86	1.2952735
23	0xbe617cc7	-0.22020255
24	0x3ea90f63	0.33019552
25	0x3f8816f6	1.0632007
26	0x3e73e75b	0.23818724
27	0xbeab3380	-0.3343773
28	0xbf82bb0a	-1.021333
29	0x3ed4910b	0.4151691
30	0x3f2827c9	0.6568571
31	0xbda3075c	-0.07960388
32	0xbe4c1933	-0.19931488
33	0x3d08cf93	0.033401083
34	0x3e81a3f2	0.25320393
35	0xbe93c0d6	-0.2885806
36	0x3f9694d4	1.1764169
37	0xbf04d18c	-0.51882243
38	0x3f130933	0.5743591
39	0xbf06033e	-0.523487
40	0x3ebc91c5	0.36829963
41	0xbf066146	-0.5249218
42	0x3eaa2867	0.3323395
43	0x3f8f4bfd	1.1195065
44	0x3eabb714	0.33538115
45	0x3ecefbbe	0.4042644
46	0x3e54ce35	0.20781787
47	0x3f8535ed	1.0407082
48	0xbf1d03e7	-0.6133408
49	0xbeb529ca	-0.35383445
50	0xbe986d5f	-0.29770944
51	0xbeb72991	-0.357739
52	0x3cc7f20b	0.024407407
53	0xbeca38f1	-0.39496568
54	0xbe2eed32	-0.1708267
55	0xbea02945	-0.31281486
56	0xbee3ff83	-0.44530877
57	0x3f31a075	0.69385463
58	0xbeb8f528	-0.3612454
59	0x3f4b7f29	0.79490906
60	0xbd98ff13	-0.074705265
61	0xbf73e379	-0.9526897
62	0x3f7cbb50	0.98723316
63	0x3f6d7c44	0.9276774
64	0xbf2ff812	-0.687379
65	0xbe0e09cd	-0.13870926
66	0xbd52e7d5	-0.051490624
67	0xbe896d47	-0.26841184
68	0x3e960cbe	0.29306597
69	0xbe20194a	-0.15634647
70	0x3d95e295	0.07318608
71	0x3e275959	0.16342677
72	0x3e93d4c1	0.28873256
73	0xbf20258d	-0.625573
74	0x3e680f9c	0.22662205
75	0x3f0c2c25	0.5475486
76	0x3c2da0b9	0.010597401
77	0xbca08718	-0.019595668
78	0xbf008140	-0.5019722
79	0xbe789608	-0.24275982
80	0x3b096e1d	0.0020970174
81	0xbfcff7eb	-1.6247534
82	0xbf1691a5	-0.58815986
83	0x3d2441b3	0.04010172
84	0x3f0d3291	0.55155283
85	0x3f24874d	0.6426895
86	0x3f985959	1.1902267
87	0xbda2c743	-0.079481624
88	0x3e051cbd	0.12999244
89	0x3d7a123d	0.06105255
90	0xbe03b62c	-0.12862462
91	0xbed2b3d9	-0.41152838
92	0x3f0b1102	0.54322827
93	0x3ca6b933	0.020351982
94	0x3db74e3c	0.08950469
95	0xbdb93cfc	-0.09044835
96	0x3f130bf2	0.574401
97	0xbf268b8c	-0.6505668
98	0x3ed3b8d2	0.41351944
99	0xbec9ecad	-0.39438382
100	0xbd33fd28	-0.0439426
101	0x3d18ba96	0.037287317
102	0x3f6f3bab	0.9345042
103	0x3d3877f2	0.045036264
104	0xbdc4d9f0	-0.09611881
105	0x3f3aa41a	0.7290665
106	0x3d4db737	0.050223555
107	0xbe502a44	-0.20328623
108	0xbf891fc5	-1.071282
109	0xbe40ed0d	-0.18840428
110	0x3eb12848	0.34601045
111	0x3e83d14c	0.25745618
112	0x3dfbf032	0.12301673
113	0x3f110fdd	0.5666483
114	0xbe54a9ff	-0.20767973
115	0x3fb7d38c	1.4361434
116	0x3eefa4db	0.46805462
117	0x3ef58906	0.47956103
118	0x3caeb357	0.02132575
119	0x3f4b6110	0.7944498
120	0xbe86bf8a	-0.26318008
121	0x3e6e953b	0.23299114
122	0xbee8cbb3	-0.4546791
123	0x3f920955	1.1409098
124	0xbea4070d	-0.3203663
125	0x3dc8534c	0.097815126
126	0x3e1c6d29	0.15276016
127	0xbe50035a	-0.20313779
128	0x3ed5d74c	0.4176582
129	0xbf30cf92	-0.6906673
130	0x3e0dba72	0.13840654
131	0x3f0f1dda	0.55904925
132	0xbf3423ec	-0.7036731
133	0x3e0901ae	0.13379547
134	0x3e1592cc	0.1460678
135	0xbf073daf	-0.52828497
136	0x3ec7a9e2	0.38996798
137	0xbf7466f6	-0.95469606
138	0x3f2c7991	0.67372996
139	0x3e9957ba	0.29949743
140	0x3dcf7e09	0.10131461
141	0x3e87cfd9	0.26525763
142	0xbf58b7bf	-0.84655374
143	0xbdbceaf2	-0.092245
144	0xbf649a09	-0.8929754
145	0x3f260856	0.6485647
146	0xbd85957e	-0.06522654
147	0xbf10050e	-0.5625771
148	0xbdb9f500	-0.09079933
149	0xba0b2536	-0.0005307974
150	0xbf300d0e	-0.6876992
151	0x3dc4bf9b	0.09606858
152	0x3ee0e7e8	0.4392693
153	0x3e83a0f1	0.25708726
154	0x3de3f433	0.11130562
155	0xbfc24eee	-1.5180337
156	0x3f5fee96	0.8747343
157	0x3f5da125	0.8657401
158	0x3cf48bdd	0.029851848
159	0x3f584b1d	0.84489614
160	0x3dc19c54	0.09453645
161	0xbcbd6ad3	-0.023122227
162	0xbfa2d88d	-1.2722336
163	0x3edcbc6f	0.43112513
164	0xbed66bef	-0.41879222
165	0xbf0d3b55	-0.5516866
166	0x3f6bea9a	0.9215485
167	0xbeb8851e	-0.3603906
168	0x3fbfab25	1.4974104
169	0xbea9de23	-0.3317729
170	0x3e98cd33	0.29844055
171	0xbe2098aa	-0.15683237
172	0x3ec5014f	0.3847756
173	0x3f30b9e7	0.69033664
174	0x3f7ed3dc	0.9954202
175	0xbd6dddf5	-0.058073003
176	0x3f5dc279	0.86624867
177	0x3e926f69	0.28600624
178	0x3d43932c	0.047747776
179	0x3f234df9	0.6379085
180	0xbf1e7c52	-0.6190845
181	0x3ee77b66	0.45211333
182	0xbc3f341c	-0.011670139
183	0xbdb9b586	-0.09067826
184	0x3f13a40a	0.5767218
185	0x3ef641b4	0.48097003
186	0xbefc90b6	-0.49329156
187	0xbe6e69be	-0.23282525
188	0x3e03983d	0.12851043
189	0x3c1f06b0	0.009706184
190	0x3eb0339e	0.3441438
191	0x3f0acde0	0.5422039
192	0xbeb8c7d6	-0.36089963
193	0xbeabfbc6	-0.33590525
194	0xbda04726	-0.078260705
195	0x3e504870	0.20340133
196	0x3f8889dc	1.0667071
197	0xbf5b84e9	-0.8574968
198	0xbf81f7d6	-1.0153759
199	0x3f032ef5	0.51243526
200	0x3d990ac6	0.07472758
201	0x3f2980c5	0.6621211
202	0x3e50c3da	0.20387211
203	0x3e8bed25	0.27329364
204	0x3bdd7de1	0.0067593907
205	0xbe539678	-0.20662868
206	0x3df5f397	0.12009352
207	0x3f069bea	0.52581656
208	0xbf50ac25	-0.8151267
209	0xbe18ff73	-0.14941196
210	0x3f3bc38e	0.7334527
211	0x3e90da16	0.28291386
212	0xbe663afb	-0.22483437
213	0xbf47efad	-0.7810009
214	0xbeb9aa31	-0.36262658
215	0x3f16f8a1	0.5897313
216	0x3ed770b3	0.4207817
217	0x3f5f8dfb	0.8732602
218	0xbf1f9209	-0.62332207
219	0x3f3629ff	0.7115783
220	0xbf06aed9	-0.52610546
221	0xbf37200b	-0.7153327
222	0xbd417291	-0.0472284
223	0x3f0e4eb3	0.55588835
224	0x3f853fe4	1.0410123
225	0x3e88d96b	0.26728377
226	0x3eeeb5e6	0.46623152
227	0xbcb4d0f2	-0.02207229
228	0x3e841830	0.25799704
229	0x3f03674d	0.513295
230	0x3f187fb3	0.59569854
231	0xbe353ff5	-0.17700179
232	0xbf56496b	-0.83705777
233	0xbe4bbaf8	-0.19895542
234	0x3ddd8fea	0.10818465
235	0x3f08b84f	0.5340623
236	0x3f030280	0.5117569
237	0xbe8e1faa	-0.27758533
238	0xbde61ca2	-0.1123593
239	0x3f53b2a3	0.82694453
240	0x3dafde44	0.08587316
241	0xbeb6b0b4	-0.3568169
242	0x3e8c2559	0.27372244
243	0x3ed0d9f2	0.4079128
244	0x3ed7a6af	0.42119357
245	0xbf213f68	-0.62987375
246	0xbf330e9c	-0.6994417
247	0xbf7a3645	-0.9773906
248	0x3e38e460	0.18055868
249	0xbf9bf8df	-1.2185324
250	0xbedb3729	-0.4281552
251	0xbe640de7	-0.22270928
252	0x3ec702d5	0.38869348
253	0x3d207aac	0.03917949
254	0xbd4952f6	-0.049151383
255	0x3f4f35f3	0.80941695

fc2.bias f4 [128]
0	0x3e21fcc3	0.15819077
1	0x3f395f24	0.724108
2	0xbdcb94df	-0.09940504
3	0x3e9708a0	0.29498768
4	0x3d20f04a	0.039291658
5	0xbe2e85e1	-0.17043258
6	0xbefd5588	-0.49479318
7	0x3eaba8f2	0.33527333
8	0xbeb2b746	-0.34905452
9	0x3ecc3a87	0.39888403
10	0xbd19b265	-0.037523646
11	0x3c86c986	0.016453516
12	0x3cb4f5ae	0.022089805
13	0x3f0e1d82	0.55513775
14	0xbc39b3d6	-0.01133438
15	0x3ec186fd	0.377983
16	0xbd79eef4	-0.0610189
17	0xbe0f6c7a	-0.14006224
18	0xbd845ebb	-0.06463381
19	0x3e8ce389	0.27517346
20	0x3e2d4e99	0.16924514
21	0xbd7556db	-0.059897285
22	0x3d90e5eb	0.07075103
23	0xbc587468	-0.013211347
24	0x3d83c18e	0.06433402
25	0x3ea53bf4	0.32272303
26	0x3d9fd073	0.078034304
27	0xbe36895c	-0.17825836
28	0x3c9979c8	0.018734828
29	0x3c9df879	0.01928352
30	0xbd24ce58	-0.040235847
31	0xbec17417	-0.37783882
32	0x3e674755	0.22585805
33	0x3ec1667f	0.3777351
34	0xbeb5f8e8	-0.35541463
35	0x3f0bde51	0.546361
36	0x3e848c3c	0.2588824
37	0xbca00088	-0.019531503
38	0xbe1f3676	-0.15548119
39	0xbe04d4d0	-0.12971807
40	0xbe31a430	-0.17347789
41	0x3e505b74	0.20347387
42	0x3e8e1b6c	0.27755296
43	0x3ec39303	0.381981
44	0xbe8d6796	-0.27618092
45	0xbf22076e	-0.63292587
46	0xbef9b85c	-0.48773468
47	0xbda84939	-0.08217091
48	0xbe842452	-0.2580896
49	0x3d8473f2	0.06467427
50	0x3f0597d2	0.52184784
51	0x3dd85cdb	0.10564586
52	0x3e70178e	0.23446485
53	0xbe916835	-0.28399816
54	0xbf29c822	-0.66321003
55	0xbec54545	-0.3852941
56	0xbdc8449b	-0.097787105
57	0xbe7ab18c	-0.24481791
58	0x3f0532a2	0.52030385
59	0x3e36437a	0.17799178
60	0x3e0a2e4e	0.13494226
61	0x3e21098a	0.15726295
62	0xbdc8d090	-0.09805405
63	0xbdbe6bcd	-0.09297905
64	0x3e74e96a	0.23917165
65	0xbd729573	-0.059224557
66	0xbe6f8828	-0.23391783
67	0x3ebfaf54	0.37438452
68	0x3dc1cea2	0.0946324
69	0xbd897d72	-0.0671338
70	0x3ef1e204	0.4724275
71	0xbd96a7e3	-0.073562406
72	0xbe2d74ed	-0.16939135
73	0xbd99ffb8	-0.075194776
74	0x3db4d412	0.08829512
75	0xb964468c	-0.00021770055
76	0x3d8ad77d	0.067793824
77	0x3e88b637	0.2670152
78	0x3f3b55fa	0.73178065
79	0x3ea864ae	0.32889313
80	0x3ecbb0cb	0.3978332
81	0xbe15922b	-0.1460654
82	0x3ef144f6	0.47122926
83	0xbd30b8f5	-0.04314514
84	0x3dbef1b0	0.09323442
85	0x3f29a460	0.6626644
86	0xbe139cb3	-0.14415245
87	0x3da85ede	0.082212195
88	0xbd9c6e08	-0.07638174
89	0xbe4be618	-0.19911993
90	0xbcb9df06	-0.022689354
91	0xbecc7ea3	-0.39940366
92	0x3ed6c3fb	0.41946396
93	0xbd7dc866	-0.061958693
94	0xbe50104d	-0.20318718
95	0xbc02c4d8	-0.0079815015
96	0x3e10f6b0	0.14156604
97	0x3ea4b2e9	0.32167748
98	0xbec43abe	-0.38326067
99	0x3f0a0f17	0.53929275
100	0x3f036b30	0.5133543
101	0x3e01442e	0.12623665
102	0xbe3c25d7	-0.1837381
103	0x3f138df8	0.576385
104	0xbde0cd81	-0.10976697
105	0x3ee68c3e	0.4502887
106	0x3d25f4a2	0.040516503
107	0x3f15889f	0.5841159
108	0xbed60000	-0.41796875
109	0xbbd6de60	-0.006557271
110	0xbeb54047	-0.35400602
111	0xbda7cc78	-0.08193296
112	0x3e3f3d12	0.1867564
113	0x3b8fc0dd	0.0043870048
114	0xbee5908c	-0.44836843
115	0x3cabb195	0.020958701
116	0x3c54c57e	0.012986539
117	0x3eb5f287	0.35536596
118	0xbdb5e6d0	-0.088819146
119	0x3e8132cc	0.25234067
120	0xbeb59de1	-0.35472015
121	0xbd6a0884	-0.057137027
122	0x3ea2c0f4	0.31787837
123	0x3f3b9b11	0.7328349
124	0x3f1392ed	0.57646066
125	0x3d25f7ea	0.040519632
126	0xbe7895a7	-0.24275838
127	0x3f2359ef	0.638091

fc3.weight f4 [4, 128]
0	0xbec30817	-0.3809211
1	0x3f04b9d6	0.51846063
2	0x3e710bf3	0.23539715
3	0xbe8ee97c	-0.2791251
4	0x400d4329	2.2072241
5	0x3dc710c6	0.09719996
6	0xbda9712b	-0.08273538
7	0xbe04c044	-0.12963969
8	0x3e48dfdd	0.19616647
9	0xbfe9eda4	-1.8275647
10	0x3e0bd5b8	0.13655746
11	0x3ea95313	0.33071193
12	0x3eadd7b3	0.33953628
13	0xbf409700	-0.7523041
14	0xbf41bb67	-0.7567658
15	0x3e321dca	0.17394176
16	0x3e933433	0.28750762
17	0x3dfc08e3	0.123063825
18	0x3d97ef46	0.07418685
19	0x3e40ac6f	0.18815778
20	0x3f0ddc35	0.55414134
21	0x3e0a0080	0.13476753
22	0xbf2403d3	-0.64068335
23	0x3e5093cd	0.20368882
24	0xbfbdc12e	-1.4824579
25	0xbf32398f	-0.6961908
26	0xbf608e27	-0.8771691
27	0x3efda471	0.4953952
28	0x3dd6d750	0.10490286
29	0x3e847f09	0.2587817
30	0xbf4ae60b	-0.7925727
31	0x3d6a8c19	0.057262514
32	0x3f4fc9a7	0.8116707
33	0xbee90070	-0.45508146
34	0xbf2f11c5	-0.6838649
35	0x3e7c8fa5	0.24664171
36	0x3ef65955	0.4811503
37	0x3d3a10ac	0.045426056
38	0x3ff1f772	1.8903639
39	0x3e5925fb	0.21205895
40	0x3e009162	0.12555459
41	0xbf3c5e93	-0.7358181
42	0x3ff178a9	1.8864948
43	0x3f43aff9	0.7644039
44	0xbe879fa4	-0.26488984
45	0xbef9fe58	-0.4882686
46	0xbe89a31b	-0.26882252
47	0x3e64eb52	0.22355393
48	0xbec0c3af	-0.37649295
49	0x3fad7227	1.3550462
50	0x4008ad8a	2.135592
51	0xbf97acc9	-1.1849605
52	0xbff1ceae	-1.8891199
53	0xbecfb5ad	-0.40568295
54	0xbfa2ad6a	-1.2709172
55	0x3fb2d209	1.3970348
56	0x3e4e3482	0.20137218
57	0x3dc384b2	0.09546794
58	0x3ffe254a	1.985513
59	0xbf51ba4b	-0.81924886
60	0x3f67fa01	0.9061585
61	0xc018c71c	-2.3871527
62	0x3ebd3fd7	0.36962768
63	0xbdfd6c1d	-0.123741366
64	0xbe50bf9f	-0.20385598
65	0x3dffafd2	0.12484707
66	0x3fdc5abb	1.7215189
67	0xbdda1d96	-0.10650174
68	0x3ed45060	0.4146757
69	0x3e35941c	0.1773228
70	0xbf312fd4	-0.69213605
71	0x3f563537	0.8367495
72	0x3efffe77	0.4999883
73	0x3ecb2d5c	0.39683044
74	0x403869af	2.8814504
75	0x3eb7d5d5	0.35905328
76	0xbc65817f	-0.014007925
77	0xbfa3d634	-1.2799745
78	0x3f440cbc	0.7658193
79	0x3ed8edb9	0.42368868
80	0xbf950406	-1.1641853
81	0x3f0c2084	0.54737115
82	0xbf843862	-1.0329707
83	0x3eaf5df4	0.34251368
84	0xbf3ab18a	-0.72927153
85	0x3f4a125b	0.7893426
86	0xbfdfe215	-1.749087
87	0xbf1d5be8	-0.6146836
88	0xbf2628c7	-0.6490597
89	0x3e0563da	0.13026372
90	0x3ed7754b	0.42081675
91	0x3ea6bfb2	0.32568127
92	0xbea4b0b6	-0.3216607
93	0x3eb79fe1	0.35864165
94	0xbf2f2731	-0.68419176
95	0xc035acb7	-2.8386667
96	0x3fce69ce	1.6126039
97	0x3ef644af	0.48099276
98	0x3f1caf12	0.61204636
99	0x3e74bf5a	0.2390112
100	0x40211a63	2.5172355
101	0x3eaefbdf	0.34176537
102	0x3df32ef6	0.118741915
103	0xbdfbf9c9	-0.12303502
104	0xbfd20b52	-1.6409705
105	0x3f4d5b72	0.8021766
106	0xbf0d8586	-0.55281866
107	0x3f4d7345	0.8025401
108	0xbf11a9cb	-0.5689971
109	0x3dfea53d	0.124338605
110	0xbf97d221	-1.1861001
111	0xbd9d577a	-0.076827005
112	0x3e96e29b	0.2946976
113	0x3f0784a1	0.5293675
114	0xc02654e8	-2.5989323
115	0xbf05b1fd	-0.52224714
116	0xbf42cb43	-0.760914
117	0xbf272890	-0.6529627
118	0x3e3a9612	0.1822131
119	0x3f35500b	0.7082526
120	0xbea53fa7	-0.32275125
121	0x3df2a803	0.11848452
122	0xbd8ae239	-0.0678143
123	0x3f9beb3c	1.2181163
124	0x4014f0df	2.3272016
125	0x3e7caca7	0.24675237
126	0xc011c826	-2.277841
127	0xbf5c7ce6	-0.8612808
128	0xbe810658	-0.25200152
129	0x3fac7e70	1.3476086
130	0xbe3a3391	-0.18183734
131	0x3ecde206	0.40211505
132	0xbf6726c6	-0.9029354
133	0x3e6ac4d2	0.22926643
134	0xbfb562d6	-1.4170787
135	0x3f123651	0.5711413
136	0x3f890db3	1.0707306
137	0xbd22439f	-0.03961527
138	0xbd8d64ab	-0.069039665
139	0x3f18b038	0.5964389
140	0x3e0621f1	0.13098885
141	0xbfc0f438	-1.507453
142	0xbfca729b	-1.5816225
143	0x3fb3868d	1.4025437
144	0x3f36bbae	0.71380126
145	0xbe88f6dc	-0.2675084
146	0xbfcf8a60	-1.6214104
147	0x3f204269	0.62601334
148	0xbf636893	-0.8883144
149	0x3f5853cb	0.8450286
150	0x3f032da4	0.5124152
151	0xbe00eb16	-0.12589678
152	0xbf6d9882	-0.92810833
153	0xbe9669ff	-0.29377744
154	0x3f3688c6	0.7130245
155	0xbff66e7e	-1.925247
156	0xbf939a01	-1.1531373
157	0x3f39e48c	0.7261436
158	0x3f8e82ab	1.1133627
159	0x3edd508b	0.43225512
160	0xbf82d94d	-1.0222565
161	0xbfe3d459	-1.7799178
162	0xbed6c7c5	-0.41949287
163	0x3e5360e1	0.20642425
164	0x3f9f9745	1.2468039
165	0xbff75ac8	-1.9324579
166	0xbf5be7d3	-0.8590061
167	0xbcaa1d85	-0.02076603
168	0xbe6baf05	-0.23015983
169	0x3e69b8bc	0.22824377
170	0x3fb72754	1.4308877
171	0x3f08b15d	0.53395635
172	0xc01793e7	-2.3684022
173	0x3fcb3202	1.5874636
174	0xbe0ad321	-0.13557102
175	0xbe541351	-0.20710494
176	0xbf87f680	-1.0622101
177	0xbf9a40f1	-1.2051069
178	0xbf08e05c	-0.53467345
179	0xbf0d065b	-0.5508782
180	0x3e887ea9	0.26659134
181	0xbe86c20f	-0.2631993
182	0xbf88bb90	-1.068224
183	0xbf575873	-0.8411934
184	0x3f32dda9	0.69869477
185	0xbeb70a9b	-0.3575028
186	0xbe3d3701	-0.18478014
187	0xbf91a667	-1.1378907
188	0x3fa5e391	1.2960073
189	0x3e10526e	0.14093944
190	0x3ee7bb8b	0.4526027
191	0x3fbf60c3	1.4951404
192	0x3f661406	0.89874303
193	0xbd70f12f	-0.05882376
194	0x3ffe6ab1	1.987631
195	0xbe1192d3	-0.14216165
196	0xbf6c1b81	-0.9222947
197	0xbde32492	-0.110909596
198	0xbf175186	-0.5910877
199	0x3ff359a1	1.9011728
200	0xbe5c0bfa	-0.21488944
201	0x3f3a829c	0.72855544
202	0xbf415d76	-0.75533235
203	0x3ee13fbf	0.43993947
204	0x3f8e8dfa	1.1137078
205	0x3e75316e	0.23944637
206	0xc00ce80d	-2.2016633
207	0xbf8fbc28	-1.1229296
208	0x3ead0452	0.3379236
209	0xbf14e896	-0.581674
210	0x3e818c18	0.25302196
211	0x3ef857cb	0.4850448
212	0xbf8d62c8	-1.1045771
213	0xc00e1aec	-2.2203932
214	0x3f4c1008	0.7971196
215	0xbf8d5549	-1.1041652
216	0xbf6dc0c9	-0.9287229
217	0xbe7ec79d	-0.24880834
218	0x3f17187d	0.5902174
219	0x3dabfa17	0.0839731
220	0xbf362e3d	-0.71164304
221	0x3ec8275f	0.39092538
222	0xbd375e53	-0.04476769
223	0x3f2c8a0b	0.67398137
224	0x3feb4b78	1.8382406
225	0x3ea8a816	0.3294074
226	0xbe1ba68b	-0.1520025
227	0xbf6dade9	-0.9284349
228	0x3f02a3b3	0.51031035
229	0xbf058749	-0.52159554
230	0xbe81742f	-0.25283954
231	0x3ce51c1c	0.027967505
232	0xbeb68d27	-0.35654566
233	0xbfa7da69	-1.3113528
234	0xbe68f2ec	-0.22748917
235	0xbfa941c9	-1.3223201
236	0xbf55100d	-0.83227617
237	0x3d55ccdc	0.052197322
238	0x3f8e13e3	1.1099819
239	0xbc4172f2	-0.01180719
240	0x3f087141	0.5329781
241	0x3e449209	0.19196333
242	0xbe16bdeb	-0.14720885
243	0xbf60994a	-0.877339
244	0x40153177	2.331144
245	0x3e1929d2	0.1495736
246	0x3f40406f	0.7509832
247	0xbfb73e86	-1.4315956
248	0x3fbc9ff8	1.4736319
249	0xbf07d689	-0.5306173
250	0x3f9f61a2	1.245167
251	0x3f87754b	1.058267
252	0x3ef0f3cb	0.47061
253	0x3ee4869e	0.44633955
254	0x3f614fd5	0.8801244
255	0xbee0ff80	-0.4394493

fc3.bias f4 [4]
0	0xbd3c0439	-0.045902465
1	0x3ec44de1	0.38340667
2	0xbf1b5a5f	-0.6068477
3	0xbee82f31	-0.45348504
